node {
  name: "input_producer/Const"
  op: "Const"
  attr {
    key: "_output_shapes"
    value {
      list {
        shape {
          dim {
            size: 1
          }
        }
      }
    }
  }
  attr {
    key: "dtype"
    value {
      type: DT_STRING
    }
  }
  attr {
    key: "value"
    value {
      tensor {
        dtype: DT_STRING
        tensor_shape {
          dim {
            size: 1
          }
        }
        string_val: "train_2500.tfrecords"
      }
    }
  }
}
node {
  name: "input_producer/Size"
  op: "Const"
  attr {
    key: "_output_shapes"
    value {
      list {
        shape {
        }
      }
    }
  }
  attr {
    key: "dtype"
    value {
      type: DT_INT32
    }
  }
  attr {
    key: "value"
    value {
      tensor {
        dtype: DT_INT32
        tensor_shape {
        }
        int_val: 1
      }
    }
  }
}
node {
  name: "input_producer/Greater/y"
  op: "Const"
  attr {
    key: "_output_shapes"
    value {
      list {
        shape {
        }
      }
    }
  }
  attr {
    key: "dtype"
    value {
      type: DT_INT32
    }
  }
  attr {
    key: "value"
    value {
      tensor {
        dtype: DT_INT32
        tensor_shape {
        }
        int_val: 0
      }
    }
  }
}
node {
  name: "input_producer/Greater"
  op: "Greater"
  input: "input_producer/Size"
  input: "input_producer/Greater/y"
  attr {
    key: "T"
    value {
      type: DT_INT32
    }
  }
  attr {
    key: "_output_shapes"
    value {
      list {
        shape {
        }
      }
    }
  }
}
node {
  name: "input_producer/Assert/Const"
  op: "Const"
  attr {
    key: "_output_shapes"
    value {
      list {
        shape {
        }
      }
    }
  }
  attr {
    key: "dtype"
    value {
      type: DT_STRING
    }
  }
  attr {
    key: "value"
    value {
      tensor {
        dtype: DT_STRING
        tensor_shape {
        }
        string_val: "string_input_producer requires a non-null input tensor"
      }
    }
  }
}
node {
  name: "input_producer/Assert/Assert/data_0"
  op: "Const"
  attr {
    key: "_output_shapes"
    value {
      list {
        shape {
        }
      }
    }
  }
  attr {
    key: "dtype"
    value {
      type: DT_STRING
    }
  }
  attr {
    key: "value"
    value {
      tensor {
        dtype: DT_STRING
        tensor_shape {
        }
        string_val: "string_input_producer requires a non-null input tensor"
      }
    }
  }
}
node {
  name: "input_producer/Assert/Assert"
  op: "Assert"
  input: "input_producer/Greater"
  input: "input_producer/Assert/Assert/data_0"
  attr {
    key: "T"
    value {
      list {
        type: DT_STRING
      }
    }
  }
  attr {
    key: "summarize"
    value {
      i: 3
    }
  }
}
node {
  name: "input_producer/Identity"
  op: "Identity"
  input: "input_producer/Const"
  input: "^input_producer/Assert/Assert"
  attr {
    key: "T"
    value {
      type: DT_STRING
    }
  }
  attr {
    key: "_output_shapes"
    value {
      list {
        shape {
          dim {
            size: 1
          }
        }
      }
    }
  }
}
node {
  name: "input_producer/RandomShuffle"
  op: "RandomShuffle"
  input: "input_producer/Identity"
  attr {
    key: "T"
    value {
      type: DT_STRING
    }
  }
  attr {
    key: "_output_shapes"
    value {
      list {
        shape {
          dim {
            size: 1
          }
        }
      }
    }
  }
  attr {
    key: "seed"
    value {
      i: 0
    }
  }
  attr {
    key: "seed2"
    value {
      i: 0
    }
  }
}
node {
  name: "input_producer"
  op: "FIFOQueueV2"
  attr {
    key: "_output_shapes"
    value {
      list {
        shape {
        }
      }
    }
  }
  attr {
    key: "capacity"
    value {
      i: 32
    }
  }
  attr {
    key: "component_types"
    value {
      list {
        type: DT_STRING
      }
    }
  }
  attr {
    key: "container"
    value {
      s: ""
    }
  }
  attr {
    key: "shapes"
    value {
      list {
        shape {
        }
      }
    }
  }
  attr {
    key: "shared_name"
    value {
      s: ""
    }
  }
}
node {
  name: "input_producer/input_producer_EnqueueMany"
  op: "QueueEnqueueManyV2"
  input: "input_producer"
  input: "input_producer/RandomShuffle"
  attr {
    key: "Tcomponents"
    value {
      list {
        type: DT_STRING
      }
    }
  }
  attr {
    key: "timeout_ms"
    value {
      i: -1
    }
  }
}
node {
  name: "input_producer/input_producer_Close"
  op: "QueueCloseV2"
  input: "input_producer"
  attr {
    key: "cancel_pending_enqueues"
    value {
      b: false
    }
  }
}
node {
  name: "input_producer/input_producer_Close_1"
  op: "QueueCloseV2"
  input: "input_producer"
  attr {
    key: "cancel_pending_enqueues"
    value {
      b: true
    }
  }
}
node {
  name: "input_producer/input_producer_Size"
  op: "QueueSizeV2"
  input: "input_producer"
  attr {
    key: "_output_shapes"
    value {
      list {
        shape {
        }
      }
    }
  }
}
node {
  name: "input_producer/ToFloat"
  op: "Cast"
  input: "input_producer/input_producer_Size"
  attr {
    key: "DstT"
    value {
      type: DT_FLOAT
    }
  }
  attr {
    key: "SrcT"
    value {
      type: DT_INT32
    }
  }
  attr {
    key: "_output_shapes"
    value {
      list {
        shape {
        }
      }
    }
  }
}
node {
  name: "input_producer/mul/y"
  op: "Const"
  attr {
    key: "_output_shapes"
    value {
      list {
        shape {
        }
      }
    }
  }
  attr {
    key: "dtype"
    value {
      type: DT_FLOAT
    }
  }
  attr {
    key: "value"
    value {
      tensor {
        dtype: DT_FLOAT
        tensor_shape {
        }
        float_val: 0.03125
      }
    }
  }
}
node {
  name: "input_producer/mul"
  op: "Mul"
  input: "input_producer/ToFloat"
  input: "input_producer/mul/y"
  attr {
    key: "T"
    value {
      type: DT_FLOAT
    }
  }
  attr {
    key: "_output_shapes"
    value {
      list {
        shape {
        }
      }
    }
  }
}
node {
  name: "input_producer/fraction_of_32_full/tags"
  op: "Const"
  attr {
    key: "_output_shapes"
    value {
      list {
        shape {
        }
      }
    }
  }
  attr {
    key: "dtype"
    value {
      type: DT_STRING
    }
  }
  attr {
    key: "value"
    value {
      tensor {
        dtype: DT_STRING
        tensor_shape {
        }
        string_val: "input_producer/fraction_of_32_full"
      }
    }
  }
}
node {
  name: "input_producer/fraction_of_32_full"
  op: "ScalarSummary"
  input: "input_producer/fraction_of_32_full/tags"
  input: "input_producer/mul"
  attr {
    key: "T"
    value {
      type: DT_FLOAT
    }
  }
  attr {
    key: "_output_shapes"
    value {
      list {
        shape {
        }
      }
    }
  }
}
node {
  name: "TFRecordReaderV2"
  op: "TFRecordReaderV2"
  attr {
    key: "_output_shapes"
    value {
      list {
        shape {
        }
      }
    }
  }
  attr {
    key: "compression_type"
    value {
      s: ""
    }
  }
  attr {
    key: "container"
    value {
      s: ""
    }
  }
  attr {
    key: "shared_name"
    value {
      s: ""
    }
  }
}
node {
  name: "ReaderReadV2"
  op: "ReaderReadV2"
  input: "TFRecordReaderV2"
  input: "input_producer"
  attr {
    key: "_output_shapes"
    value {
      list {
        shape {
        }
        shape {
        }
      }
    }
  }
}
node {
  name: "ParseSingleExample/Const"
  op: "Const"
  attr {
    key: "_output_shapes"
    value {
      list {
        shape {
          dim {
          }
        }
      }
    }
  }
  attr {
    key: "dtype"
    value {
      type: DT_INT64
    }
  }
  attr {
    key: "value"
    value {
      tensor {
        dtype: DT_INT64
        tensor_shape {
          dim {
          }
        }
      }
    }
  }
}
node {
  name: "ParseSingleExample/Const_1"
  op: "Const"
  attr {
    key: "_output_shapes"
    value {
      list {
        shape {
          dim {
          }
        }
      }
    }
  }
  attr {
    key: "dtype"
    value {
      type: DT_INT64
    }
  }
  attr {
    key: "value"
    value {
      tensor {
        dtype: DT_INT64
        tensor_shape {
          dim {
          }
        }
      }
    }
  }
}
node {
  name: "ParseSingleExample/Const_2"
  op: "Const"
  attr {
    key: "_output_shapes"
    value {
      list {
        shape {
          dim {
          }
        }
      }
    }
  }
  attr {
    key: "dtype"
    value {
      type: DT_STRING
    }
  }
  attr {
    key: "value"
    value {
      tensor {
        dtype: DT_STRING
        tensor_shape {
          dim {
          }
        }
      }
    }
  }
}
node {
  name: "ParseSingleExample/ParseSingleExample"
  op: "ParseSingleExample"
  input: "ReaderReadV2:1"
  input: "ParseSingleExample/Const"
  input: "ParseSingleExample/Const_1"
  input: "ParseSingleExample/Const_2"
  attr {
    key: "Tdense"
    value {
      list {
        type: DT_INT64
        type: DT_INT64
        type: DT_STRING
      }
    }
  }
  attr {
    key: "_output_shapes"
    value {
      list {
        shape {
        }
        shape {
        }
        shape {
        }
      }
    }
  }
  attr {
    key: "dense_keys"
    value {
      list {
        s: "age"
        s: "gender"
        s: "image_raw"
      }
    }
  }
  attr {
    key: "dense_shapes"
    value {
      list {
        shape {
        }
        shape {
        }
        shape {
        }
      }
    }
  }
  attr {
    key: "num_sparse"
    value {
      i: 0
    }
  }
  attr {
    key: "sparse_keys"
    value {
      list {
      }
    }
  }
  attr {
    key: "sparse_types"
    value {
      list {
      }
    }
  }
}
node {
  name: "DecodeRaw"
  op: "DecodeRaw"
  input: "ParseSingleExample/ParseSingleExample:2"
  attr {
    key: "_output_shapes"
    value {
      list {
        shape {
          dim {
            size: -1
          }
        }
      }
    }
  }
  attr {
    key: "little_endian"
    value {
      b: true
    }
  }
  attr {
    key: "out_type"
    value {
      type: DT_UINT8
    }
  }
}
node {
  name: "Reshape/shape"
  op: "Const"
  attr {
    key: "_output_shapes"
    value {
      list {
        shape {
          dim {
            size: 3
          }
        }
      }
    }
  }
  attr {
    key: "dtype"
    value {
      type: DT_INT32
    }
  }
  attr {
    key: "value"
    value {
      tensor {
        dtype: DT_INT32
        tensor_shape {
          dim {
            size: 3
          }
        }
        tensor_content: "@\000\000\000@\000\000\000\003\000\000\000"
      }
    }
  }
}
node {
  name: "Reshape"
  op: "Reshape"
  input: "DecodeRaw"
  input: "Reshape/shape"
  attr {
    key: "T"
    value {
      type: DT_UINT8
    }
  }
  attr {
    key: "Tshape"
    value {
      type: DT_INT32
    }
  }
  attr {
    key: "_output_shapes"
    value {
      list {
        shape {
          dim {
            size: 64
          }
          dim {
            size: 64
          }
          dim {
            size: 3
          }
        }
      }
    }
  }
}
node {
  name: "eval_image/convert_image/Cast"
  op: "Cast"
  input: "Reshape"
  attr {
    key: "DstT"
    value {
      type: DT_FLOAT
    }
  }
  attr {
    key: "SrcT"
    value {
      type: DT_UINT8
    }
  }
  attr {
    key: "_output_shapes"
    value {
      list {
        shape {
          dim {
            size: 64
          }
          dim {
            size: 64
          }
          dim {
            size: 3
          }
        }
      }
    }
  }
}
node {
  name: "eval_image/convert_image/y"
  op: "Const"
  attr {
    key: "_output_shapes"
    value {
      list {
        shape {
        }
      }
    }
  }
  attr {
    key: "dtype"
    value {
      type: DT_FLOAT
    }
  }
  attr {
    key: "value"
    value {
      tensor {
        dtype: DT_FLOAT
        tensor_shape {
        }
        float_val: 0.003921568859368563
      }
    }
  }
}
node {
  name: "eval_image/convert_image"
  op: "Mul"
  input: "eval_image/convert_image/Cast"
  input: "eval_image/convert_image/y"
  attr {
    key: "T"
    value {
      type: DT_FLOAT
    }
  }
  attr {
    key: "_output_shapes"
    value {
      list {
        shape {
          dim {
            size: 64
          }
          dim {
            size: 64
          }
          dim {
            size: 3
          }
        }
      }
    }
  }
}
node {
  name: "eval_image/central_crop/control_dependency"
  op: "Identity"
  input: "eval_image/convert_image"
  attr {
    key: "T"
    value {
      type: DT_FLOAT
    }
  }
  attr {
    key: "_class"
    value {
      list {
        s: "loc:@eval_image/convert_image"
      }
    }
  }
  attr {
    key: "_output_shapes"
    value {
      list {
        shape {
          dim {
            size: 64
          }
          dim {
            size: 64
          }
          dim {
            size: 3
          }
        }
      }
    }
  }
}
node {
  name: "eval_image/central_crop/Shape"
  op: "Const"
  attr {
    key: "_output_shapes"
    value {
      list {
        shape {
          dim {
            size: 3
          }
        }
      }
    }
  }
  attr {
    key: "dtype"
    value {
      type: DT_INT32
    }
  }
  attr {
    key: "value"
    value {
      tensor {
        dtype: DT_INT32
        tensor_shape {
          dim {
            size: 3
          }
        }
        tensor_content: "@\000\000\000@\000\000\000\003\000\000\000"
      }
    }
  }
}
node {
  name: "eval_image/central_crop/strided_slice/stack"
  op: "Const"
  attr {
    key: "_output_shapes"
    value {
      list {
        shape {
          dim {
            size: 1
          }
        }
      }
    }
  }
  attr {
    key: "dtype"
    value {
      type: DT_INT32
    }
  }
  attr {
    key: "value"
    value {
      tensor {
        dtype: DT_INT32
        tensor_shape {
          dim {
            size: 1
          }
        }
        int_val: 0
      }
    }
  }
}
node {
  name: "eval_image/central_crop/strided_slice/stack_1"
  op: "Const"
  attr {
    key: "_output_shapes"
    value {
      list {
        shape {
          dim {
            size: 1
          }
        }
      }
    }
  }
  attr {
    key: "dtype"
    value {
      type: DT_INT32
    }
  }
  attr {
    key: "value"
    value {
      tensor {
        dtype: DT_INT32
        tensor_shape {
          dim {
            size: 1
          }
        }
        int_val: 1
      }
    }
  }
}
node {
  name: "eval_image/central_crop/strided_slice/stack_2"
  op: "Const"
  attr {
    key: "_output_shapes"
    value {
      list {
        shape {
          dim {
            size: 1
          }
        }
      }
    }
  }
  attr {
    key: "dtype"
    value {
      type: DT_INT32
    }
  }
  attr {
    key: "value"
    value {
      tensor {
        dtype: DT_INT32
        tensor_shape {
          dim {
            size: 1
          }
        }
        int_val: 1
      }
    }
  }
}
node {
  name: "eval_image/central_crop/strided_slice"
  op: "StridedSlice"
  input: "eval_image/central_crop/Shape"
  input: "eval_image/central_crop/strided_slice/stack"
  input: "eval_image/central_crop/strided_slice/stack_1"
  input: "eval_image/central_crop/strided_slice/stack_2"
  attr {
    key: "Index"
    value {
      type: DT_INT32
    }
  }
  attr {
    key: "T"
    value {
      type: DT_INT32
    }
  }
  attr {
    key: "_output_shapes"
    value {
      list {
        shape {
        }
      }
    }
  }
  attr {
    key: "begin_mask"
    value {
      i: 0
    }
  }
  attr {
    key: "ellipsis_mask"
    value {
      i: 0
    }
  }
  attr {
    key: "end_mask"
    value {
      i: 0
    }
  }
  attr {
    key: "new_axis_mask"
    value {
      i: 0
    }
  }
  attr {
    key: "shrink_axis_mask"
    value {
      i: 1
    }
  }
}
node {
  name: "eval_image/central_crop/ToDouble"
  op: "Cast"
  input: "eval_image/central_crop/strided_slice"
  attr {
    key: "DstT"
    value {
      type: DT_DOUBLE
    }
  }
  attr {
    key: "SrcT"
    value {
      type: DT_INT32
    }
  }
  attr {
    key: "_output_shapes"
    value {
      list {
        shape {
        }
      }
    }
  }
}
node {
  name: "eval_image/central_crop/strided_slice_1/stack"
  op: "Const"
  attr {
    key: "_output_shapes"
    value {
      list {
        shape {
          dim {
            size: 1
          }
        }
      }
    }
  }
  attr {
    key: "dtype"
    value {
      type: DT_INT32
    }
  }
  attr {
    key: "value"
    value {
      tensor {
        dtype: DT_INT32
        tensor_shape {
          dim {
            size: 1
          }
        }
        int_val: 1
      }
    }
  }
}
node {
  name: "eval_image/central_crop/strided_slice_1/stack_1"
  op: "Const"
  attr {
    key: "_output_shapes"
    value {
      list {
        shape {
          dim {
            size: 1
          }
        }
      }
    }
  }
  attr {
    key: "dtype"
    value {
      type: DT_INT32
    }
  }
  attr {
    key: "value"
    value {
      tensor {
        dtype: DT_INT32
        tensor_shape {
          dim {
            size: 1
          }
        }
        int_val: 2
      }
    }
  }
}
node {
  name: "eval_image/central_crop/strided_slice_1/stack_2"
  op: "Const"
  attr {
    key: "_output_shapes"
    value {
      list {
        shape {
          dim {
            size: 1
          }
        }
      }
    }
  }
  attr {
    key: "dtype"
    value {
      type: DT_INT32
    }
  }
  attr {
    key: "value"
    value {
      tensor {
        dtype: DT_INT32
        tensor_shape {
          dim {
            size: 1
          }
        }
        int_val: 1
      }
    }
  }
}
node {
  name: "eval_image/central_crop/strided_slice_1"
  op: "StridedSlice"
  input: "eval_image/central_crop/Shape"
  input: "eval_image/central_crop/strided_slice_1/stack"
  input: "eval_image/central_crop/strided_slice_1/stack_1"
  input: "eval_image/central_crop/strided_slice_1/stack_2"
  attr {
    key: "Index"
    value {
      type: DT_INT32
    }
  }
  attr {
    key: "T"
    value {
      type: DT_INT32
    }
  }
  attr {
    key: "_output_shapes"
    value {
      list {
        shape {
        }
      }
    }
  }
  attr {
    key: "begin_mask"
    value {
      i: 0
    }
  }
  attr {
    key: "ellipsis_mask"
    value {
      i: 0
    }
  }
  attr {
    key: "end_mask"
    value {
      i: 0
    }
  }
  attr {
    key: "new_axis_mask"
    value {
      i: 0
    }
  }
  attr {
    key: "shrink_axis_mask"
    value {
      i: 1
    }
  }
}
node {
  name: "eval_image/central_crop/ToDouble_1"
  op: "Cast"
  input: "eval_image/central_crop/strided_slice_1"
  attr {
    key: "DstT"
    value {
      type: DT_DOUBLE
    }
  }
  attr {
    key: "SrcT"
    value {
      type: DT_INT32
    }
  }
  attr {
    key: "_output_shapes"
    value {
      list {
        shape {
        }
      }
    }
  }
}
node {
  name: "eval_image/central_crop/mul/y"
  op: "Const"
  attr {
    key: "_output_shapes"
    value {
      list {
        shape {
        }
      }
    }
  }
  attr {
    key: "dtype"
    value {
      type: DT_DOUBLE
    }
  }
  attr {
    key: "value"
    value {
      tensor {
        dtype: DT_DOUBLE
        tensor_shape {
        }
        double_val: 0.875
      }
    }
  }
}
node {
  name: "eval_image/central_crop/mul"
  op: "Mul"
  input: "eval_image/central_crop/ToDouble"
  input: "eval_image/central_crop/mul/y"
  attr {
    key: "T"
    value {
      type: DT_DOUBLE
    }
  }
  attr {
    key: "_output_shapes"
    value {
      list {
        shape {
        }
      }
    }
  }
}
node {
  name: "eval_image/central_crop/sub"
  op: "Sub"
  input: "eval_image/central_crop/ToDouble"
  input: "eval_image/central_crop/mul"
  attr {
    key: "T"
    value {
      type: DT_DOUBLE
    }
  }
  attr {
    key: "_output_shapes"
    value {
      list {
        shape {
        }
      }
    }
  }
}
node {
  name: "eval_image/central_crop/truediv/y"
  op: "Const"
  attr {
    key: "_output_shapes"
    value {
      list {
        shape {
        }
      }
    }
  }
  attr {
    key: "dtype"
    value {
      type: DT_DOUBLE
    }
  }
  attr {
    key: "value"
    value {
      tensor {
        dtype: DT_DOUBLE
        tensor_shape {
        }
        double_val: 2.0
      }
    }
  }
}
node {
  name: "eval_image/central_crop/truediv"
  op: "RealDiv"
  input: "eval_image/central_crop/sub"
  input: "eval_image/central_crop/truediv/y"
  attr {
    key: "T"
    value {
      type: DT_DOUBLE
    }
  }
  attr {
    key: "_output_shapes"
    value {
      list {
        shape {
        }
      }
    }
  }
}
node {
  name: "eval_image/central_crop/ToInt32"
  op: "Cast"
  input: "eval_image/central_crop/truediv"
  attr {
    key: "DstT"
    value {
      type: DT_INT32
    }
  }
  attr {
    key: "SrcT"
    value {
      type: DT_DOUBLE
    }
  }
  attr {
    key: "_output_shapes"
    value {
      list {
        shape {
        }
      }
    }
  }
}
node {
  name: "eval_image/central_crop/mul_1/y"
  op: "Const"
  attr {
    key: "_output_shapes"
    value {
      list {
        shape {
        }
      }
    }
  }
  attr {
    key: "dtype"
    value {
      type: DT_DOUBLE
    }
  }
  attr {
    key: "value"
    value {
      tensor {
        dtype: DT_DOUBLE
        tensor_shape {
        }
        double_val: 0.875
      }
    }
  }
}
node {
  name: "eval_image/central_crop/mul_1"
  op: "Mul"
  input: "eval_image/central_crop/ToDouble_1"
  input: "eval_image/central_crop/mul_1/y"
  attr {
    key: "T"
    value {
      type: DT_DOUBLE
    }
  }
  attr {
    key: "_output_shapes"
    value {
      list {
        shape {
        }
      }
    }
  }
}
node {
  name: "eval_image/central_crop/sub_1"
  op: "Sub"
  input: "eval_image/central_crop/ToDouble_1"
  input: "eval_image/central_crop/mul_1"
  attr {
    key: "T"
    value {
      type: DT_DOUBLE
    }
  }
  attr {
    key: "_output_shapes"
    value {
      list {
        shape {
        }
      }
    }
  }
}
node {
  name: "eval_image/central_crop/truediv_1/y"
  op: "Const"
  attr {
    key: "_output_shapes"
    value {
      list {
        shape {
        }
      }
    }
  }
  attr {
    key: "dtype"
    value {
      type: DT_DOUBLE
    }
  }
  attr {
    key: "value"
    value {
      tensor {
        dtype: DT_DOUBLE
        tensor_shape {
        }
        double_val: 2.0
      }
    }
  }
}
node {
  name: "eval_image/central_crop/truediv_1"
  op: "RealDiv"
  input: "eval_image/central_crop/sub_1"
  input: "eval_image/central_crop/truediv_1/y"
  attr {
    key: "T"
    value {
      type: DT_DOUBLE
    }
  }
  attr {
    key: "_output_shapes"
    value {
      list {
        shape {
        }
      }
    }
  }
}
node {
  name: "eval_image/central_crop/ToInt32_1"
  op: "Cast"
  input: "eval_image/central_crop/truediv_1"
  attr {
    key: "DstT"
    value {
      type: DT_INT32
    }
  }
  attr {
    key: "SrcT"
    value {
      type: DT_DOUBLE
    }
  }
  attr {
    key: "_output_shapes"
    value {
      list {
        shape {
        }
      }
    }
  }
}
node {
  name: "eval_image/central_crop/strided_slice_2/stack"
  op: "Const"
  attr {
    key: "_output_shapes"
    value {
      list {
        shape {
          dim {
            size: 1
          }
        }
      }
    }
  }
  attr {
    key: "dtype"
    value {
      type: DT_INT32
    }
  }
  attr {
    key: "value"
    value {
      tensor {
        dtype: DT_INT32
        tensor_shape {
          dim {
            size: 1
          }
        }
        int_val: 0
      }
    }
  }
}
node {
  name: "eval_image/central_crop/strided_slice_2/stack_1"
  op: "Const"
  attr {
    key: "_output_shapes"
    value {
      list {
        shape {
          dim {
            size: 1
          }
        }
      }
    }
  }
  attr {
    key: "dtype"
    value {
      type: DT_INT32
    }
  }
  attr {
    key: "value"
    value {
      tensor {
        dtype: DT_INT32
        tensor_shape {
          dim {
            size: 1
          }
        }
        int_val: 1
      }
    }
  }
}
node {
  name: "eval_image/central_crop/strided_slice_2/stack_2"
  op: "Const"
  attr {
    key: "_output_shapes"
    value {
      list {
        shape {
          dim {
            size: 1
          }
        }
      }
    }
  }
  attr {
    key: "dtype"
    value {
      type: DT_INT32
    }
  }
  attr {
    key: "value"
    value {
      tensor {
        dtype: DT_INT32
        tensor_shape {
          dim {
            size: 1
          }
        }
        int_val: 1
      }
    }
  }
}
node {
  name: "eval_image/central_crop/strided_slice_2"
  op: "StridedSlice"
  input: "eval_image/central_crop/Shape"
  input: "eval_image/central_crop/strided_slice_2/stack"
  input: "eval_image/central_crop/strided_slice_2/stack_1"
  input: "eval_image/central_crop/strided_slice_2/stack_2"
  attr {
    key: "Index"
    value {
      type: DT_INT32
    }
  }
  attr {
    key: "T"
    value {
      type: DT_INT32
    }
  }
  attr {
    key: "_output_shapes"
    value {
      list {
        shape {
        }
      }
    }
  }
  attr {
    key: "begin_mask"
    value {
      i: 0
    }
  }
  attr {
    key: "ellipsis_mask"
    value {
      i: 0
    }
  }
  attr {
    key: "end_mask"
    value {
      i: 0
    }
  }
  attr {
    key: "new_axis_mask"
    value {
      i: 0
    }
  }
  attr {
    key: "shrink_axis_mask"
    value {
      i: 1
    }
  }
}
node {
  name: "eval_image/central_crop/mul_2/y"
  op: "Const"
  attr {
    key: "_output_shapes"
    value {
      list {
        shape {
        }
      }
    }
  }
  attr {
    key: "dtype"
    value {
      type: DT_INT32
    }
  }
  attr {
    key: "value"
    value {
      tensor {
        dtype: DT_INT32
        tensor_shape {
        }
        int_val: 2
      }
    }
  }
}
node {
  name: "eval_image/central_crop/mul_2"
  op: "Mul"
  input: "eval_image/central_crop/ToInt32"
  input: "eval_image/central_crop/mul_2/y"
  attr {
    key: "T"
    value {
      type: DT_INT32
    }
  }
  attr {
    key: "_output_shapes"
    value {
      list {
        shape {
        }
      }
    }
  }
}
node {
  name: "eval_image/central_crop/sub_2"
  op: "Sub"
  input: "eval_image/central_crop/strided_slice_2"
  input: "eval_image/central_crop/mul_2"
  attr {
    key: "T"
    value {
      type: DT_INT32
    }
  }
  attr {
    key: "_output_shapes"
    value {
      list {
        shape {
        }
      }
    }
  }
}
node {
  name: "eval_image/central_crop/strided_slice_3/stack"
  op: "Const"
  attr {
    key: "_output_shapes"
    value {
      list {
        shape {
          dim {
            size: 1
          }
        }
      }
    }
  }
  attr {
    key: "dtype"
    value {
      type: DT_INT32
    }
  }
  attr {
    key: "value"
    value {
      tensor {
        dtype: DT_INT32
        tensor_shape {
          dim {
            size: 1
          }
        }
        int_val: 1
      }
    }
  }
}
node {
  name: "eval_image/central_crop/strided_slice_3/stack_1"
  op: "Const"
  attr {
    key: "_output_shapes"
    value {
      list {
        shape {
          dim {
            size: 1
          }
        }
      }
    }
  }
  attr {
    key: "dtype"
    value {
      type: DT_INT32
    }
  }
  attr {
    key: "value"
    value {
      tensor {
        dtype: DT_INT32
        tensor_shape {
          dim {
            size: 1
          }
        }
        int_val: 2
      }
    }
  }
}
node {
  name: "eval_image/central_crop/strided_slice_3/stack_2"
  op: "Const"
  attr {
    key: "_output_shapes"
    value {
      list {
        shape {
          dim {
            size: 1
          }
        }
      }
    }
  }
  attr {
    key: "dtype"
    value {
      type: DT_INT32
    }
  }
  attr {
    key: "value"
    value {
      tensor {
        dtype: DT_INT32
        tensor_shape {
          dim {
            size: 1
          }
        }
        int_val: 1
      }
    }
  }
}
node {
  name: "eval_image/central_crop/strided_slice_3"
  op: "StridedSlice"
  input: "eval_image/central_crop/Shape"
  input: "eval_image/central_crop/strided_slice_3/stack"
  input: "eval_image/central_crop/strided_slice_3/stack_1"
  input: "eval_image/central_crop/strided_slice_3/stack_2"
  attr {
    key: "Index"
    value {
      type: DT_INT32
    }
  }
  attr {
    key: "T"
    value {
      type: DT_INT32
    }
  }
  attr {
    key: "_output_shapes"
    value {
      list {
        shape {
        }
      }
    }
  }
  attr {
    key: "begin_mask"
    value {
      i: 0
    }
  }
  attr {
    key: "ellipsis_mask"
    value {
      i: 0
    }
  }
  attr {
    key: "end_mask"
    value {
      i: 0
    }
  }
  attr {
    key: "new_axis_mask"
    value {
      i: 0
    }
  }
  attr {
    key: "shrink_axis_mask"
    value {
      i: 1
    }
  }
}
node {
  name: "eval_image/central_crop/mul_3/y"
  op: "Const"
  attr {
    key: "_output_shapes"
    value {
      list {
        shape {
        }
      }
    }
  }
  attr {
    key: "dtype"
    value {
      type: DT_INT32
    }
  }
  attr {
    key: "value"
    value {
      tensor {
        dtype: DT_INT32
        tensor_shape {
        }
        int_val: 2
      }
    }
  }
}
node {
  name: "eval_image/central_crop/mul_3"
  op: "Mul"
  input: "eval_image/central_crop/ToInt32_1"
  input: "eval_image/central_crop/mul_3/y"
  attr {
    key: "T"
    value {
      type: DT_INT32
    }
  }
  attr {
    key: "_output_shapes"
    value {
      list {
        shape {
        }
      }
    }
  }
}
node {
  name: "eval_image/central_crop/sub_3"
  op: "Sub"
  input: "eval_image/central_crop/strided_slice_3"
  input: "eval_image/central_crop/mul_3"
  attr {
    key: "T"
    value {
      type: DT_INT32
    }
  }
  attr {
    key: "_output_shapes"
    value {
      list {
        shape {
        }
      }
    }
  }
}
node {
  name: "eval_image/central_crop/stack/2"
  op: "Const"
  attr {
    key: "_output_shapes"
    value {
      list {
        shape {
        }
      }
    }
  }
  attr {
    key: "dtype"
    value {
      type: DT_INT32
    }
  }
  attr {
    key: "value"
    value {
      tensor {
        dtype: DT_INT32
        tensor_shape {
        }
        int_val: 0
      }
    }
  }
}
node {
  name: "eval_image/central_crop/stack"
  op: "Pack"
  input: "eval_image/central_crop/ToInt32"
  input: "eval_image/central_crop/ToInt32_1"
  input: "eval_image/central_crop/stack/2"
  attr {
    key: "N"
    value {
      i: 3
    }
  }
  attr {
    key: "T"
    value {
      type: DT_INT32
    }
  }
  attr {
    key: "_output_shapes"
    value {
      list {
        shape {
          dim {
            size: 3
          }
        }
      }
    }
  }
  attr {
    key: "axis"
    value {
      i: 0
    }
  }
}
node {
  name: "eval_image/central_crop/stack_1/2"
  op: "Const"
  attr {
    key: "_output_shapes"
    value {
      list {
        shape {
        }
      }
    }
  }
  attr {
    key: "dtype"
    value {
      type: DT_INT32
    }
  }
  attr {
    key: "value"
    value {
      tensor {
        dtype: DT_INT32
        tensor_shape {
        }
        int_val: -1
      }
    }
  }
}
node {
  name: "eval_image/central_crop/stack_1"
  op: "Pack"
  input: "eval_image/central_crop/sub_2"
  input: "eval_image/central_crop/sub_3"
  input: "eval_image/central_crop/stack_1/2"
  attr {
    key: "N"
    value {
      i: 3
    }
  }
  attr {
    key: "T"
    value {
      type: DT_INT32
    }
  }
  attr {
    key: "_output_shapes"
    value {
      list {
        shape {
          dim {
            size: 3
          }
        }
      }
    }
  }
  attr {
    key: "axis"
    value {
      i: 0
    }
  }
}
node {
  name: "eval_image/central_crop/Slice"
  op: "Slice"
  input: "eval_image/central_crop/control_dependency"
  input: "eval_image/central_crop/stack"
  input: "eval_image/central_crop/stack_1"
  attr {
    key: "Index"
    value {
      type: DT_INT32
    }
  }
  attr {
    key: "T"
    value {
      type: DT_FLOAT
    }
  }
  attr {
    key: "_output_shapes"
    value {
      list {
        shape {
          dim {
            size: -1
          }
          dim {
            size: -1
          }
          dim {
            size: 3
          }
        }
      }
    }
  }
}
node {
  name: "eval_image/ExpandDims/dim"
  op: "Const"
  attr {
    key: "_output_shapes"
    value {
      list {
        shape {
        }
      }
    }
  }
  attr {
    key: "dtype"
    value {
      type: DT_INT32
    }
  }
  attr {
    key: "value"
    value {
      tensor {
        dtype: DT_INT32
        tensor_shape {
        }
        int_val: 0
      }
    }
  }
}
node {
  name: "eval_image/ExpandDims"
  op: "ExpandDims"
  input: "eval_image/central_crop/Slice"
  input: "eval_image/ExpandDims/dim"
  attr {
    key: "T"
    value {
      type: DT_FLOAT
    }
  }
  attr {
    key: "Tdim"
    value {
      type: DT_INT32
    }
  }
  attr {
    key: "_output_shapes"
    value {
      list {
        shape {
          dim {
            size: 1
          }
          dim {
            size: -1
          }
          dim {
            size: -1
          }
          dim {
            size: 3
          }
        }
      }
    }
  }
}
node {
  name: "eval_image/ResizeBilinear/size"
  op: "Const"
  attr {
    key: "_output_shapes"
    value {
      list {
        shape {
          dim {
            size: 2
          }
        }
      }
    }
  }
  attr {
    key: "dtype"
    value {
      type: DT_INT32
    }
  }
  attr {
    key: "value"
    value {
      tensor {
        dtype: DT_INT32
        tensor_shape {
          dim {
            size: 2
          }
        }
        tensor_content: "\340\000\000\000\340\000\000\000"
      }
    }
  }
}
node {
  name: "eval_image/ResizeBilinear"
  op: "ResizeBilinear"
  input: "eval_image/ExpandDims"
  input: "eval_image/ResizeBilinear/size"
  attr {
    key: "T"
    value {
      type: DT_FLOAT
    }
  }
  attr {
    key: "_output_shapes"
    value {
      list {
        shape {
          dim {
            size: 1
          }
          dim {
            size: 224
          }
          dim {
            size: 224
          }
          dim {
            size: 3
          }
        }
      }
    }
  }
  attr {
    key: "align_corners"
    value {
      b: false
    }
  }
}
node {
  name: "eval_image/Squeeze"
  op: "Squeeze"
  input: "eval_image/ResizeBilinear"
  attr {
    key: "T"
    value {
      type: DT_FLOAT
    }
  }
  attr {
    key: "_output_shapes"
    value {
      list {
        shape {
          dim {
            size: 224
          }
          dim {
            size: 224
          }
          dim {
            size: 3
          }
        }
      }
    }
  }
  attr {
    key: "squeeze_dims"
    value {
      list {
        i: 0
      }
    }
  }
}
node {
  name: "eval_image/Sub/y"
  op: "Const"
  attr {
    key: "_output_shapes"
    value {
      list {
        shape {
        }
      }
    }
  }
  attr {
    key: "dtype"
    value {
      type: DT_FLOAT
    }
  }
  attr {
    key: "value"
    value {
      tensor {
        dtype: DT_FLOAT
        tensor_shape {
        }
        float_val: 0.5
      }
    }
  }
}
node {
  name: "eval_image/Sub"
  op: "Sub"
  input: "eval_image/Squeeze"
  input: "eval_image/Sub/y"
  attr {
    key: "T"
    value {
      type: DT_FLOAT
    }
  }
  attr {
    key: "_output_shapes"
    value {
      list {
        shape {
          dim {
            size: 224
          }
          dim {
            size: 224
          }
          dim {
            size: 3
          }
        }
      }
    }
  }
}
node {
  name: "eval_image/Mul/y"
  op: "Const"
  attr {
    key: "_output_shapes"
    value {
      list {
        shape {
        }
      }
    }
  }
  attr {
    key: "dtype"
    value {
      type: DT_FLOAT
    }
  }
  attr {
    key: "value"
    value {
      tensor {
        dtype: DT_FLOAT
        tensor_shape {
        }
        float_val: 2.0
      }
    }
  }
}
node {
  name: "eval_image/Mul"
  op: "Mul"
  input: "eval_image/Sub"
  input: "eval_image/Mul/y"
  attr {
    key: "T"
    value {
      type: DT_FLOAT
    }
  }
  attr {
    key: "_output_shapes"
    value {
      list {
        shape {
          dim {
            size: 224
          }
          dim {
            size: 224
          }
          dim {
            size: 3
          }
        }
      }
    }
  }
}
node {
  name: "Cast"
  op: "Cast"
  input: "ParseSingleExample/ParseSingleExample:1"
  attr {
    key: "DstT"
    value {
      type: DT_INT32
    }
  }
  attr {
    key: "SrcT"
    value {
      type: DT_INT64
    }
  }
  attr {
    key: "_output_shapes"
    value {
      list {
        shape {
        }
      }
    }
  }
}
node {
  name: "shuffle_batch/Const"
  op: "Const"
  attr {
    key: "_output_shapes"
    value {
      list {
        shape {
        }
      }
    }
  }
  attr {
    key: "dtype"
    value {
      type: DT_BOOL
    }
  }
  attr {
    key: "value"
    value {
      tensor {
        dtype: DT_BOOL
        tensor_shape {
        }
        bool_val: true
      }
    }
  }
}
node {
  name: "shuffle_batch/random_shuffle_queue"
  op: "RandomShuffleQueueV2"
  attr {
    key: "_output_shapes"
    value {
      list {
        shape {
        }
      }
    }
  }
  attr {
    key: "capacity"
    value {
      i: 30
    }
  }
  attr {
    key: "component_types"
    value {
      list {
        type: DT_FLOAT
        type: DT_UINT8
        type: DT_INT32
        type: DT_INT64
      }
    }
  }
  attr {
    key: "container"
    value {
      s: ""
    }
  }
  attr {
    key: "min_after_dequeue"
    value {
      i: 10
    }
  }
  attr {
    key: "seed"
    value {
      i: 0
    }
  }
  attr {
    key: "seed2"
    value {
      i: 0
    }
  }
  attr {
    key: "shapes"
    value {
      list {
        shape {
          dim {
            size: 224
          }
          dim {
            size: 224
          }
          dim {
            size: 3
          }
        }
        shape {
          dim {
            size: 64
          }
          dim {
            size: 64
          }
          dim {
            size: 3
          }
        }
        shape {
        }
        shape {
        }
      }
    }
  }
  attr {
    key: "shared_name"
    value {
      s: ""
    }
  }
}
node {
  name: "shuffle_batch/random_shuffle_queue_enqueue"
  op: "QueueEnqueueV2"
  input: "shuffle_batch/random_shuffle_queue"
  input: "eval_image/Mul"
  input: "Reshape"
  input: "Cast"
  input: "ParseSingleExample/ParseSingleExample"
  attr {
    key: "Tcomponents"
    value {
      list {
        type: DT_FLOAT
        type: DT_UINT8
        type: DT_INT32
        type: DT_INT64
      }
    }
  }
  attr {
    key: "timeout_ms"
    value {
      i: -1
    }
  }
}
node {
  name: "shuffle_batch/random_shuffle_queue_Close"
  op: "QueueCloseV2"
  input: "shuffle_batch/random_shuffle_queue"
  attr {
    key: "cancel_pending_enqueues"
    value {
      b: false
    }
  }
}
node {
  name: "shuffle_batch/random_shuffle_queue_Close_1"
  op: "QueueCloseV2"
  input: "shuffle_batch/random_shuffle_queue"
  attr {
    key: "cancel_pending_enqueues"
    value {
      b: true
    }
  }
}
node {
  name: "shuffle_batch/random_shuffle_queue_Size"
  op: "QueueSizeV2"
  input: "shuffle_batch/random_shuffle_queue"
  attr {
    key: "_output_shapes"
    value {
      list {
        shape {
        }
      }
    }
  }
}
node {
  name: "shuffle_batch/sub/y"
  op: "Const"
  attr {
    key: "_output_shapes"
    value {
      list {
        shape {
        }
      }
    }
  }
  attr {
    key: "dtype"
    value {
      type: DT_INT32
    }
  }
  attr {
    key: "value"
    value {
      tensor {
        dtype: DT_INT32
        tensor_shape {
        }
        int_val: 10
      }
    }
  }
}
node {
  name: "shuffle_batch/sub"
  op: "Sub"
  input: "shuffle_batch/random_shuffle_queue_Size"
  input: "shuffle_batch/sub/y"
  attr {
    key: "T"
    value {
      type: DT_INT32
    }
  }
  attr {
    key: "_output_shapes"
    value {
      list {
        shape {
        }
      }
    }
  }
}
node {
  name: "shuffle_batch/Maximum/x"
  op: "Const"
  attr {
    key: "_output_shapes"
    value {
      list {
        shape {
        }
      }
    }
  }
  attr {
    key: "dtype"
    value {
      type: DT_INT32
    }
  }
  attr {
    key: "value"
    value {
      tensor {
        dtype: DT_INT32
        tensor_shape {
        }
        int_val: 0
      }
    }
  }
}
node {
  name: "shuffle_batch/Maximum"
  op: "Maximum"
  input: "shuffle_batch/Maximum/x"
  input: "shuffle_batch/sub"
  attr {
    key: "T"
    value {
      type: DT_INT32
    }
  }
  attr {
    key: "_output_shapes"
    value {
      list {
        shape {
        }
      }
    }
  }
}
node {
  name: "shuffle_batch/ToFloat"
  op: "Cast"
  input: "shuffle_batch/Maximum"
  attr {
    key: "DstT"
    value {
      type: DT_FLOAT
    }
  }
  attr {
    key: "SrcT"
    value {
      type: DT_INT32
    }
  }
  attr {
    key: "_output_shapes"
    value {
      list {
        shape {
        }
      }
    }
  }
}
node {
  name: "shuffle_batch/mul/y"
  op: "Const"
  attr {
    key: "_output_shapes"
    value {
      list {
        shape {
        }
      }
    }
  }
  attr {
    key: "dtype"
    value {
      type: DT_FLOAT
    }
  }
  attr {
    key: "value"
    value {
      tensor {
        dtype: DT_FLOAT
        tensor_shape {
        }
        float_val: 0.05000000074505806
      }
    }
  }
}
node {
  name: "shuffle_batch/mul"
  op: "Mul"
  input: "shuffle_batch/ToFloat"
  input: "shuffle_batch/mul/y"
  attr {
    key: "T"
    value {
      type: DT_FLOAT
    }
  }
  attr {
    key: "_output_shapes"
    value {
      list {
        shape {
        }
      }
    }
  }
}
node {
  name: "shuffle_batch/fraction_over_10_of_20_full/tags"
  op: "Const"
  attr {
    key: "_output_shapes"
    value {
      list {
        shape {
        }
      }
    }
  }
  attr {
    key: "dtype"
    value {
      type: DT_STRING
    }
  }
  attr {
    key: "value"
    value {
      tensor {
        dtype: DT_STRING
        tensor_shape {
        }
        string_val: "shuffle_batch/fraction_over_10_of_20_full"
      }
    }
  }
}
node {
  name: "shuffle_batch/fraction_over_10_of_20_full"
  op: "ScalarSummary"
  input: "shuffle_batch/fraction_over_10_of_20_full/tags"
  input: "shuffle_batch/mul"
  attr {
    key: "T"
    value {
      type: DT_FLOAT
    }
  }
  attr {
    key: "_output_shapes"
    value {
      list {
        shape {
        }
      }
    }
  }
}
node {
  name: "shuffle_batch/n"
  op: "Const"
  attr {
    key: "_output_shapes"
    value {
      list {
        shape {
        }
      }
    }
  }
  attr {
    key: "dtype"
    value {
      type: DT_INT32
    }
  }
  attr {
    key: "value"
    value {
      tensor {
        dtype: DT_INT32
        tensor_shape {
        }
        int_val: 16
      }
    }
  }
}
node {
  name: "shuffle_batch"
  op: "QueueDequeueManyV2"
  input: "shuffle_batch/random_shuffle_queue"
  input: "shuffle_batch/n"
  attr {
    key: "_output_shapes"
    value {
      list {
        shape {
          dim {
            size: 16
          }
          dim {
            size: 224
          }
          dim {
            size: 224
          }
          dim {
            size: 3
          }
        }
        shape {
          dim {
            size: 16
          }
          dim {
            size: 64
          }
          dim {
            size: 64
          }
          dim {
            size: 3
          }
        }
        shape {
          dim {
            size: 16
          }
        }
        shape {
          dim {
            size: 16
          }
        }
      }
    }
  }
  attr {
    key: "component_types"
    value {
      list {
        type: DT_FLOAT
        type: DT_UINT8
        type: DT_INT32
        type: DT_INT64
      }
    }
  }
  attr {
    key: "timeout_ms"
    value {
      i: -1
    }
  }
}
node {
  name: "MobilenetV1/Conv2d_0/weights/Initializer/truncated_normal/shape"
  op: "Const"
  attr {
    key: "_class"
    value {
      list {
        s: "loc:@MobilenetV1/Conv2d_0/weights"
      }
    }
  }
  attr {
    key: "_output_shapes"
    value {
      list {
        shape {
          dim {
            size: 4
          }
        }
      }
    }
  }
  attr {
    key: "dtype"
    value {
      type: DT_INT32
    }
  }
  attr {
    key: "value"
    value {
      tensor {
        dtype: DT_INT32
        tensor_shape {
          dim {
            size: 4
          }
        }
        tensor_content: "\003\000\000\000\003\000\000\000\003\000\000\000 \000\000\000"
      }
    }
  }
}
node {
  name: "MobilenetV1/Conv2d_0/weights/Initializer/truncated_normal/mean"
  op: "Const"
  attr {
    key: "_class"
    value {
      list {
        s: "loc:@MobilenetV1/Conv2d_0/weights"
      }
    }
  }
  attr {
    key: "_output_shapes"
    value {
      list {
        shape {
        }
      }
    }
  }
  attr {
    key: "dtype"
    value {
      type: DT_FLOAT
    }
  }
  attr {
    key: "value"
    value {
      tensor {
        dtype: DT_FLOAT
        tensor_shape {
        }
        float_val: 0.0
      }
    }
  }
}
node {
  name: "MobilenetV1/Conv2d_0/weights/Initializer/truncated_normal/stddev"
  op: "Const"
  attr {
    key: "_class"
    value {
      list {
        s: "loc:@MobilenetV1/Conv2d_0/weights"
      }
    }
  }
  attr {
    key: "_output_shapes"
    value {
      list {
        shape {
        }
      }
    }
  }
  attr {
    key: "dtype"
    value {
      type: DT_FLOAT
    }
  }
  attr {
    key: "value"
    value {
      tensor {
        dtype: DT_FLOAT
        tensor_shape {
        }
        float_val: 0.09000000357627869
      }
    }
  }
}
node {
  name: "MobilenetV1/Conv2d_0/weights/Initializer/truncated_normal/TruncatedNormal"
  op: "TruncatedNormal"
  input: "MobilenetV1/Conv2d_0/weights/Initializer/truncated_normal/shape"
  attr {
    key: "T"
    value {
      type: DT_INT32
    }
  }
  attr {
    key: "_class"
    value {
      list {
        s: "loc:@MobilenetV1/Conv2d_0/weights"
      }
    }
  }
  attr {
    key: "_output_shapes"
    value {
      list {
        shape {
          dim {
            size: 3
          }
          dim {
            size: 3
          }
          dim {
            size: 3
          }
          dim {
            size: 32
          }
        }
      }
    }
  }
  attr {
    key: "dtype"
    value {
      type: DT_FLOAT
    }
  }
  attr {
    key: "seed"
    value {
      i: 0
    }
  }
  attr {
    key: "seed2"
    value {
      i: 0
    }
  }
}
node {
  name: "MobilenetV1/Conv2d_0/weights/Initializer/truncated_normal/mul"
  op: "Mul"
  input: "MobilenetV1/Conv2d_0/weights/Initializer/truncated_normal/TruncatedNormal"
  input: "MobilenetV1/Conv2d_0/weights/Initializer/truncated_normal/stddev"
  attr {
    key: "T"
    value {
      type: DT_FLOAT
    }
  }
  attr {
    key: "_class"
    value {
      list {
        s: "loc:@MobilenetV1/Conv2d_0/weights"
      }
    }
  }
  attr {
    key: "_output_shapes"
    value {
      list {
        shape {
          dim {
            size: 3
          }
          dim {
            size: 3
          }
          dim {
            size: 3
          }
          dim {
            size: 32
          }
        }
      }
    }
  }
}
node {
  name: "MobilenetV1/Conv2d_0/weights/Initializer/truncated_normal"
  op: "Add"
  input: "MobilenetV1/Conv2d_0/weights/Initializer/truncated_normal/mul"
  input: "MobilenetV1/Conv2d_0/weights/Initializer/truncated_normal/mean"
  attr {
    key: "T"
    value {
      type: DT_FLOAT
    }
  }
  attr {
    key: "_class"
    value {
      list {
        s: "loc:@MobilenetV1/Conv2d_0/weights"
      }
    }
  }
  attr {
    key: "_output_shapes"
    value {
      list {
        shape {
          dim {
            size: 3
          }
          dim {
            size: 3
          }
          dim {
            size: 3
          }
          dim {
            size: 32
          }
        }
      }
    }
  }
}
node {
  name: "MobilenetV1/Conv2d_0/weights"
  op: "VariableV2"
  attr {
    key: "_class"
    value {
      list {
        s: "loc:@MobilenetV1/Conv2d_0/weights"
      }
    }
  }
  attr {
    key: "_output_shapes"
    value {
      list {
        shape {
          dim {
            size: 3
          }
          dim {
            size: 3
          }
          dim {
            size: 3
          }
          dim {
            size: 32
          }
        }
      }
    }
  }
  attr {
    key: "container"
    value {
      s: ""
    }
  }
  attr {
    key: "dtype"
    value {
      type: DT_FLOAT
    }
  }
  attr {
    key: "shape"
    value {
      shape {
        dim {
          size: 3
        }
        dim {
          size: 3
        }
        dim {
          size: 3
        }
        dim {
          size: 32
        }
      }
    }
  }
  attr {
    key: "shared_name"
    value {
      s: ""
    }
  }
}
node {
  name: "MobilenetV1/Conv2d_0/weights/Assign"
  op: "Assign"
  input: "MobilenetV1/Conv2d_0/weights"
  input: "MobilenetV1/Conv2d_0/weights/Initializer/truncated_normal"
  attr {
    key: "T"
    value {
      type: DT_FLOAT
    }
  }
  attr {
    key: "_class"
    value {
      list {
        s: "loc:@MobilenetV1/Conv2d_0/weights"
      }
    }
  }
  attr {
    key: "_output_shapes"
    value {
      list {
        shape {
          dim {
            size: 3
          }
          dim {
            size: 3
          }
          dim {
            size: 3
          }
          dim {
            size: 32
          }
        }
      }
    }
  }
  attr {
    key: "use_locking"
    value {
      b: true
    }
  }
  attr {
    key: "validate_shape"
    value {
      b: true
    }
  }
}
node {
  name: "MobilenetV1/Conv2d_0/weights/read"
  op: "Identity"
  input: "MobilenetV1/Conv2d_0/weights"
  attr {
    key: "T"
    value {
      type: DT_FLOAT
    }
  }
  attr {
    key: "_class"
    value {
      list {
        s: "loc:@MobilenetV1/Conv2d_0/weights"
      }
    }
  }
  attr {
    key: "_output_shapes"
    value {
      list {
        shape {
          dim {
            size: 3
          }
          dim {
            size: 3
          }
          dim {
            size: 3
          }
          dim {
            size: 32
          }
        }
      }
    }
  }
}
node {
  name: "MobilenetV1/MobilenetV1/Conv2d_0/kernel/Regularizer/l2_regularizer/scale"
  op: "Const"
  attr {
    key: "_class"
    value {
      list {
        s: "loc:@MobilenetV1/Conv2d_0/weights"
      }
    }
  }
  attr {
    key: "_output_shapes"
    value {
      list {
        shape {
        }
      }
    }
  }
  attr {
    key: "dtype"
    value {
      type: DT_FLOAT
    }
  }
  attr {
    key: "value"
    value {
      tensor {
        dtype: DT_FLOAT
        tensor_shape {
        }
        float_val: 3.9999998989515007e-05
      }
    }
  }
}
node {
  name: "MobilenetV1/MobilenetV1/Conv2d_0/kernel/Regularizer/l2_regularizer/L2Loss"
  op: "L2Loss"
  input: "MobilenetV1/Conv2d_0/weights/read"
  attr {
    key: "T"
    value {
      type: DT_FLOAT
    }
  }
  attr {
    key: "_class"
    value {
      list {
        s: "loc:@MobilenetV1/Conv2d_0/weights"
      }
    }
  }
  attr {
    key: "_output_shapes"
    value {
      list {
        shape {
        }
      }
    }
  }
}
node {
  name: "MobilenetV1/MobilenetV1/Conv2d_0/kernel/Regularizer/l2_regularizer"
  op: "Mul"
  input: "MobilenetV1/MobilenetV1/Conv2d_0/kernel/Regularizer/l2_regularizer/scale"
  input: "MobilenetV1/MobilenetV1/Conv2d_0/kernel/Regularizer/l2_regularizer/L2Loss"
  attr {
    key: "T"
    value {
      type: DT_FLOAT
    }
  }
  attr {
    key: "_class"
    value {
      list {
        s: "loc:@MobilenetV1/Conv2d_0/weights"
      }
    }
  }
  attr {
    key: "_output_shapes"
    value {
      list {
        shape {
        }
      }
    }
  }
}
node {
  name: "MobilenetV1/MobilenetV1/Conv2d_0/dilation_rate"
  op: "Const"
  attr {
    key: "_output_shapes"
    value {
      list {
        shape {
          dim {
            size: 2
          }
        }
      }
    }
  }
  attr {
    key: "dtype"
    value {
      type: DT_INT32
    }
  }
  attr {
    key: "value"
    value {
      tensor {
        dtype: DT_INT32
        tensor_shape {
          dim {
            size: 2
          }
        }
        tensor_content: "\001\000\000\000\001\000\000\000"
      }
    }
  }
}
node {
  name: "MobilenetV1/MobilenetV1/Conv2d_0/Conv2D"
  op: "Conv2D"
  input: "shuffle_batch"
  input: "MobilenetV1/Conv2d_0/weights/read"
  attr {
    key: "T"
    value {
      type: DT_FLOAT
    }
  }
  attr {
    key: "_output_shapes"
    value {
      list {
        shape {
          dim {
            size: 16
          }
          dim {
            size: 112
          }
          dim {
            size: 112
          }
          dim {
            size: 32
          }
        }
      }
    }
  }
  attr {
    key: "data_format"
    value {
      s: "NHWC"
    }
  }
  attr {
    key: "dilations"
    value {
      list {
        i: 1
        i: 1
        i: 1
        i: 1
      }
    }
  }
  attr {
    key: "padding"
    value {
      s: "SAME"
    }
  }
  attr {
    key: "strides"
    value {
      list {
        i: 1
        i: 2
        i: 2
        i: 1
      }
    }
  }
  attr {
    key: "use_cudnn_on_gpu"
    value {
      b: true
    }
  }
}
node {
  name: "MobilenetV1/Conv2d_0/BatchNorm/gamma/Initializer/ones"
  op: "Const"
  attr {
    key: "_class"
    value {
      list {
        s: "loc:@MobilenetV1/Conv2d_0/BatchNorm/gamma"
      }
    }
  }
  attr {
    key: "_output_shapes"
    value {
      list {
        shape {
          dim {
            size: 32
          }
        }
      }
    }
  }
  attr {
    key: "dtype"
    value {
      type: DT_FLOAT
    }
  }
  attr {
    key: "value"
    value {
      tensor {
        dtype: DT_FLOAT
        tensor_shape {
          dim {
            size: 32
          }
        }
        float_val: 1.0
      }
    }
  }
}
node {
  name: "MobilenetV1/Conv2d_0/BatchNorm/gamma"
  op: "VariableV2"
  attr {
    key: "_class"
    value {
      list {
        s: "loc:@MobilenetV1/Conv2d_0/BatchNorm/gamma"
      }
    }
  }
  attr {
    key: "_output_shapes"
    value {
      list {
        shape {
          dim {
            size: 32
          }
        }
      }
    }
  }
  attr {
    key: "container"
    value {
      s: ""
    }
  }
  attr {
    key: "dtype"
    value {
      type: DT_FLOAT
    }
  }
  attr {
    key: "shape"
    value {
      shape {
        dim {
          size: 32
        }
      }
    }
  }
  attr {
    key: "shared_name"
    value {
      s: ""
    }
  }
}
node {
  name: "MobilenetV1/Conv2d_0/BatchNorm/gamma/Assign"
  op: "Assign"
  input: "MobilenetV1/Conv2d_0/BatchNorm/gamma"
  input: "MobilenetV1/Conv2d_0/BatchNorm/gamma/Initializer/ones"
  attr {
    key: "T"
    value {
      type: DT_FLOAT
    }
  }
  attr {
    key: "_class"
    value {
      list {
        s: "loc:@MobilenetV1/Conv2d_0/BatchNorm/gamma"
      }
    }
  }
  attr {
    key: "_output_shapes"
    value {
      list {
        shape {
          dim {
            size: 32
          }
        }
      }
    }
  }
  attr {
    key: "use_locking"
    value {
      b: true
    }
  }
  attr {
    key: "validate_shape"
    value {
      b: true
    }
  }
}
node {
  name: "MobilenetV1/Conv2d_0/BatchNorm/gamma/read"
  op: "Identity"
  input: "MobilenetV1/Conv2d_0/BatchNorm/gamma"
  attr {
    key: "T"
    value {
      type: DT_FLOAT
    }
  }
  attr {
    key: "_class"
    value {
      list {
        s: "loc:@MobilenetV1/Conv2d_0/BatchNorm/gamma"
      }
    }
  }
  attr {
    key: "_output_shapes"
    value {
      list {
        shape {
          dim {
            size: 32
          }
        }
      }
    }
  }
}
node {
  name: "MobilenetV1/Conv2d_0/BatchNorm/beta/Initializer/zeros"
  op: "Const"
  attr {
    key: "_class"
    value {
      list {
        s: "loc:@MobilenetV1/Conv2d_0/BatchNorm/beta"
      }
    }
  }
  attr {
    key: "_output_shapes"
    value {
      list {
        shape {
          dim {
            size: 32
          }
        }
      }
    }
  }
  attr {
    key: "dtype"
    value {
      type: DT_FLOAT
    }
  }
  attr {
    key: "value"
    value {
      tensor {
        dtype: DT_FLOAT
        tensor_shape {
          dim {
            size: 32
          }
        }
        float_val: 0.0
      }
    }
  }
}
node {
  name: "MobilenetV1/Conv2d_0/BatchNorm/beta"
  op: "VariableV2"
  attr {
    key: "_class"
    value {
      list {
        s: "loc:@MobilenetV1/Conv2d_0/BatchNorm/beta"
      }
    }
  }
  attr {
    key: "_output_shapes"
    value {
      list {
        shape {
          dim {
            size: 32
          }
        }
      }
    }
  }
  attr {
    key: "container"
    value {
      s: ""
    }
  }
  attr {
    key: "dtype"
    value {
      type: DT_FLOAT
    }
  }
  attr {
    key: "shape"
    value {
      shape {
        dim {
          size: 32
        }
      }
    }
  }
  attr {
    key: "shared_name"
    value {
      s: ""
    }
  }
}
node {
  name: "MobilenetV1/Conv2d_0/BatchNorm/beta/Assign"
  op: "Assign"
  input: "MobilenetV1/Conv2d_0/BatchNorm/beta"
  input: "MobilenetV1/Conv2d_0/BatchNorm/beta/Initializer/zeros"
  attr {
    key: "T"
    value {
      type: DT_FLOAT
    }
  }
  attr {
    key: "_class"
    value {
      list {
        s: "loc:@MobilenetV1/Conv2d_0/BatchNorm/beta"
      }
    }
  }
  attr {
    key: "_output_shapes"
    value {
      list {
        shape {
          dim {
            size: 32
          }
        }
      }
    }
  }
  attr {
    key: "use_locking"
    value {
      b: true
    }
  }
  attr {
    key: "validate_shape"
    value {
      b: true
    }
  }
}
node {
  name: "MobilenetV1/Conv2d_0/BatchNorm/beta/read"
  op: "Identity"
  input: "MobilenetV1/Conv2d_0/BatchNorm/beta"
  attr {
    key: "T"
    value {
      type: DT_FLOAT
    }
  }
  attr {
    key: "_class"
    value {
      list {
        s: "loc:@MobilenetV1/Conv2d_0/BatchNorm/beta"
      }
    }
  }
  attr {
    key: "_output_shapes"
    value {
      list {
        shape {
          dim {
            size: 32
          }
        }
      }
    }
  }
}
node {
  name: "MobilenetV1/Conv2d_0/BatchNorm/moving_mean/Initializer/zeros"
  op: "Const"
  attr {
    key: "_class"
    value {
      list {
        s: "loc:@MobilenetV1/Conv2d_0/BatchNorm/moving_mean"
      }
    }
  }
  attr {
    key: "_output_shapes"
    value {
      list {
        shape {
          dim {
            size: 32
          }
        }
      }
    }
  }
  attr {
    key: "dtype"
    value {
      type: DT_FLOAT
    }
  }
  attr {
    key: "value"
    value {
      tensor {
        dtype: DT_FLOAT
        tensor_shape {
          dim {
            size: 32
          }
        }
        float_val: 0.0
      }
    }
  }
}
node {
  name: "MobilenetV1/Conv2d_0/BatchNorm/moving_mean"
  op: "VariableV2"
  attr {
    key: "_class"
    value {
      list {
        s: "loc:@MobilenetV1/Conv2d_0/BatchNorm/moving_mean"
      }
    }
  }
  attr {
    key: "_output_shapes"
    value {
      list {
        shape {
          dim {
            size: 32
          }
        }
      }
    }
  }
  attr {
    key: "container"
    value {
      s: ""
    }
  }
  attr {
    key: "dtype"
    value {
      type: DT_FLOAT
    }
  }
  attr {
    key: "shape"
    value {
      shape {
        dim {
          size: 32
        }
      }
    }
  }
  attr {
    key: "shared_name"
    value {
      s: ""
    }
  }
}
node {
  name: "MobilenetV1/Conv2d_0/BatchNorm/moving_mean/Assign"
  op: "Assign"
  input: "MobilenetV1/Conv2d_0/BatchNorm/moving_mean"
  input: "MobilenetV1/Conv2d_0/BatchNorm/moving_mean/Initializer/zeros"
  attr {
    key: "T"
    value {
      type: DT_FLOAT
    }
  }
  attr {
    key: "_class"
    value {
      list {
        s: "loc:@MobilenetV1/Conv2d_0/BatchNorm/moving_mean"
      }
    }
  }
  attr {
    key: "_output_shapes"
    value {
      list {
        shape {
          dim {
            size: 32
          }
        }
      }
    }
  }
  attr {
    key: "use_locking"
    value {
      b: true
    }
  }
  attr {
    key: "validate_shape"
    value {
      b: true
    }
  }
}
node {
  name: "MobilenetV1/Conv2d_0/BatchNorm/moving_mean/read"
  op: "Identity"
  input: "MobilenetV1/Conv2d_0/BatchNorm/moving_mean"
  attr {
    key: "T"
    value {
      type: DT_FLOAT
    }
  }
  attr {
    key: "_class"
    value {
      list {
        s: "loc:@MobilenetV1/Conv2d_0/BatchNorm/moving_mean"
      }
    }
  }
  attr {
    key: "_output_shapes"
    value {
      list {
        shape {
          dim {
            size: 32
          }
        }
      }
    }
  }
}
node {
  name: "MobilenetV1/Conv2d_0/BatchNorm/moving_variance/Initializer/ones"
  op: "Const"
  attr {
    key: "_class"
    value {
      list {
        s: "loc:@MobilenetV1/Conv2d_0/BatchNorm/moving_variance"
      }
    }
  }
  attr {
    key: "_output_shapes"
    value {
      list {
        shape {
          dim {
            size: 32
          }
        }
      }
    }
  }
  attr {
    key: "dtype"
    value {
      type: DT_FLOAT
    }
  }
  attr {
    key: "value"
    value {
      tensor {
        dtype: DT_FLOAT
        tensor_shape {
          dim {
            size: 32
          }
        }
        float_val: 1.0
      }
    }
  }
}
node {
  name: "MobilenetV1/Conv2d_0/BatchNorm/moving_variance"
  op: "VariableV2"
  attr {
    key: "_class"
    value {
      list {
        s: "loc:@MobilenetV1/Conv2d_0/BatchNorm/moving_variance"
      }
    }
  }
  attr {
    key: "_output_shapes"
    value {
      list {
        shape {
          dim {
            size: 32
          }
        }
      }
    }
  }
  attr {
    key: "container"
    value {
      s: ""
    }
  }
  attr {
    key: "dtype"
    value {
      type: DT_FLOAT
    }
  }
  attr {
    key: "shape"
    value {
      shape {
        dim {
          size: 32
        }
      }
    }
  }
  attr {
    key: "shared_name"
    value {
      s: ""
    }
  }
}
node {
  name: "MobilenetV1/Conv2d_0/BatchNorm/moving_variance/Assign"
  op: "Assign"
  input: "MobilenetV1/Conv2d_0/BatchNorm/moving_variance"
  input: "MobilenetV1/Conv2d_0/BatchNorm/moving_variance/Initializer/ones"
  attr {
    key: "T"
    value {
      type: DT_FLOAT
    }
  }
  attr {
    key: "_class"
    value {
      list {
        s: "loc:@MobilenetV1/Conv2d_0/BatchNorm/moving_variance"
      }
    }
  }
  attr {
    key: "_output_shapes"
    value {
      list {
        shape {
          dim {
            size: 32
          }
        }
      }
    }
  }
  attr {
    key: "use_locking"
    value {
      b: true
    }
  }
  attr {
    key: "validate_shape"
    value {
      b: true
    }
  }
}
node {
  name: "MobilenetV1/Conv2d_0/BatchNorm/moving_variance/read"
  op: "Identity"
  input: "MobilenetV1/Conv2d_0/BatchNorm/moving_variance"
  attr {
    key: "T"
    value {
      type: DT_FLOAT
    }
  }
  attr {
    key: "_class"
    value {
      list {
        s: "loc:@MobilenetV1/Conv2d_0/BatchNorm/moving_variance"
      }
    }
  }
  attr {
    key: "_output_shapes"
    value {
      list {
        shape {
          dim {
            size: 32
          }
        }
      }
    }
  }
}
node {
  name: "MobilenetV1/MobilenetV1/Conv2d_0/BatchNorm/Const"
  op: "Const"
  attr {
    key: "_output_shapes"
    value {
      list {
        shape {
          dim {
          }
        }
      }
    }
  }
  attr {
    key: "dtype"
    value {
      type: DT_FLOAT
    }
  }
  attr {
    key: "value"
    value {
      tensor {
        dtype: DT_FLOAT
        tensor_shape {
          dim {
          }
        }
      }
    }
  }
}
node {
  name: "MobilenetV1/MobilenetV1/Conv2d_0/BatchNorm/Const_1"
  op: "Const"
  attr {
    key: "_output_shapes"
    value {
      list {
        shape {
          dim {
          }
        }
      }
    }
  }
  attr {
    key: "dtype"
    value {
      type: DT_FLOAT
    }
  }
  attr {
    key: "value"
    value {
      tensor {
        dtype: DT_FLOAT
        tensor_shape {
          dim {
          }
        }
      }
    }
  }
}
node {
  name: "MobilenetV1/MobilenetV1/Conv2d_0/BatchNorm/FusedBatchNorm"
  op: "FusedBatchNorm"
  input: "MobilenetV1/MobilenetV1/Conv2d_0/Conv2D"
  input: "MobilenetV1/Conv2d_0/BatchNorm/gamma/read"
  input: "MobilenetV1/Conv2d_0/BatchNorm/beta/read"
  input: "MobilenetV1/MobilenetV1/Conv2d_0/BatchNorm/Const"
  input: "MobilenetV1/MobilenetV1/Conv2d_0/BatchNorm/Const_1"
  attr {
    key: "T"
    value {
      type: DT_FLOAT
    }
  }
  attr {
    key: "_output_shapes"
    value {
      list {
        shape {
          dim {
            size: 16
          }
          dim {
            size: 112
          }
          dim {
            size: 112
          }
          dim {
            size: 32
          }
        }
        shape {
          dim {
            size: 32
          }
        }
        shape {
          dim {
            size: 32
          }
        }
        shape {
          dim {
            size: 32
          }
        }
        shape {
          dim {
            size: 32
          }
        }
      }
    }
  }
  attr {
    key: "data_format"
    value {
      s: "NHWC"
    }
  }
  attr {
    key: "epsilon"
    value {
      f: 0.0010000000474974513
    }
  }
  attr {
    key: "is_training"
    value {
      b: true
    }
  }
}
node {
  name: "MobilenetV1/MobilenetV1/Conv2d_0/BatchNorm/Const_2"
  op: "Const"
  attr {
    key: "_output_shapes"
    value {
      list {
        shape {
        }
      }
    }
  }
  attr {
    key: "dtype"
    value {
      type: DT_FLOAT
    }
  }
  attr {
    key: "value"
    value {
      tensor {
        dtype: DT_FLOAT
        tensor_shape {
        }
        float_val: 0.9997000098228455
      }
    }
  }
}
node {
  name: "MobilenetV1/MobilenetV1/Conv2d_0/BatchNorm/AssignMovingAvg/sub/x"
  op: "Const"
  attr {
    key: "_output_shapes"
    value {
      list {
        shape {
        }
      }
    }
  }
  attr {
    key: "dtype"
    value {
      type: DT_FLOAT
    }
  }
  attr {
    key: "value"
    value {
      tensor {
        dtype: DT_FLOAT
        tensor_shape {
        }
        float_val: 1.0
      }
    }
  }
}
node {
  name: "MobilenetV1/MobilenetV1/Conv2d_0/BatchNorm/AssignMovingAvg/sub"
  op: "Sub"
  input: "MobilenetV1/MobilenetV1/Conv2d_0/BatchNorm/AssignMovingAvg/sub/x"
  input: "MobilenetV1/MobilenetV1/Conv2d_0/BatchNorm/Const_2"
  attr {
    key: "T"
    value {
      type: DT_FLOAT
    }
  }
  attr {
    key: "_output_shapes"
    value {
      list {
        shape {
        }
      }
    }
  }
}
node {
  name: "MobilenetV1/MobilenetV1/Conv2d_0/BatchNorm/AssignMovingAvg/sub_1"
  op: "Sub"
  input: "MobilenetV1/Conv2d_0/BatchNorm/moving_mean/read"
  input: "MobilenetV1/MobilenetV1/Conv2d_0/BatchNorm/FusedBatchNorm:1"
  attr {
    key: "T"
    value {
      type: DT_FLOAT
    }
  }
  attr {
    key: "_output_shapes"
    value {
      list {
        shape {
          dim {
            size: 32
          }
        }
      }
    }
  }
}
node {
  name: "MobilenetV1/MobilenetV1/Conv2d_0/BatchNorm/AssignMovingAvg/mul"
  op: "Mul"
  input: "MobilenetV1/MobilenetV1/Conv2d_0/BatchNorm/AssignMovingAvg/sub_1"
  input: "MobilenetV1/MobilenetV1/Conv2d_0/BatchNorm/AssignMovingAvg/sub"
  attr {
    key: "T"
    value {
      type: DT_FLOAT
    }
  }
  attr {
    key: "_output_shapes"
    value {
      list {
        shape {
          dim {
            size: 32
          }
        }
      }
    }
  }
}
node {
  name: "MobilenetV1/MobilenetV1/Conv2d_0/BatchNorm/AssignMovingAvg"
  op: "AssignSub"
  input: "MobilenetV1/Conv2d_0/BatchNorm/moving_mean"
  input: "MobilenetV1/MobilenetV1/Conv2d_0/BatchNorm/AssignMovingAvg/mul"
  attr {
    key: "T"
    value {
      type: DT_FLOAT
    }
  }
  attr {
    key: "_class"
    value {
      list {
        s: "loc:@MobilenetV1/Conv2d_0/BatchNorm/moving_mean"
      }
    }
  }
  attr {
    key: "_output_shapes"
    value {
      list {
        shape {
          dim {
            size: 32
          }
        }
      }
    }
  }
  attr {
    key: "use_locking"
    value {
      b: false
    }
  }
}
node {
  name: "MobilenetV1/MobilenetV1/Conv2d_0/BatchNorm/AssignMovingAvg_1/sub/x"
  op: "Const"
  attr {
    key: "_output_shapes"
    value {
      list {
        shape {
        }
      }
    }
  }
  attr {
    key: "dtype"
    value {
      type: DT_FLOAT
    }
  }
  attr {
    key: "value"
    value {
      tensor {
        dtype: DT_FLOAT
        tensor_shape {
        }
        float_val: 1.0
      }
    }
  }
}
node {
  name: "MobilenetV1/MobilenetV1/Conv2d_0/BatchNorm/AssignMovingAvg_1/sub"
  op: "Sub"
  input: "MobilenetV1/MobilenetV1/Conv2d_0/BatchNorm/AssignMovingAvg_1/sub/x"
  input: "MobilenetV1/MobilenetV1/Conv2d_0/BatchNorm/Const_2"
  attr {
    key: "T"
    value {
      type: DT_FLOAT
    }
  }
  attr {
    key: "_output_shapes"
    value {
      list {
        shape {
        }
      }
    }
  }
}
node {
  name: "MobilenetV1/MobilenetV1/Conv2d_0/BatchNorm/AssignMovingAvg_1/sub_1"
  op: "Sub"
  input: "MobilenetV1/Conv2d_0/BatchNorm/moving_variance/read"
  input: "MobilenetV1/MobilenetV1/Conv2d_0/BatchNorm/FusedBatchNorm:2"
  attr {
    key: "T"
    value {
      type: DT_FLOAT
    }
  }
  attr {
    key: "_output_shapes"
    value {
      list {
        shape {
          dim {
            size: 32
          }
        }
      }
    }
  }
}
node {
  name: "MobilenetV1/MobilenetV1/Conv2d_0/BatchNorm/AssignMovingAvg_1/mul"
  op: "Mul"
  input: "MobilenetV1/MobilenetV1/Conv2d_0/BatchNorm/AssignMovingAvg_1/sub_1"
  input: "MobilenetV1/MobilenetV1/Conv2d_0/BatchNorm/AssignMovingAvg_1/sub"
  attr {
    key: "T"
    value {
      type: DT_FLOAT
    }
  }
  attr {
    key: "_output_shapes"
    value {
      list {
        shape {
          dim {
            size: 32
          }
        }
      }
    }
  }
}
node {
  name: "MobilenetV1/MobilenetV1/Conv2d_0/BatchNorm/AssignMovingAvg_1"
  op: "AssignSub"
  input: "MobilenetV1/Conv2d_0/BatchNorm/moving_variance"
  input: "MobilenetV1/MobilenetV1/Conv2d_0/BatchNorm/AssignMovingAvg_1/mul"
  attr {
    key: "T"
    value {
      type: DT_FLOAT
    }
  }
  attr {
    key: "_class"
    value {
      list {
        s: "loc:@MobilenetV1/Conv2d_0/BatchNorm/moving_variance"
      }
    }
  }
  attr {
    key: "_output_shapes"
    value {
      list {
        shape {
          dim {
            size: 32
          }
        }
      }
    }
  }
  attr {
    key: "use_locking"
    value {
      b: false
    }
  }
}
node {
  name: "MobilenetV1/MobilenetV1/Conv2d_0/Relu6"
  op: "Relu6"
  input: "MobilenetV1/MobilenetV1/Conv2d_0/BatchNorm/FusedBatchNorm"
  attr {
    key: "T"
    value {
      type: DT_FLOAT
    }
  }
  attr {
    key: "_output_shapes"
    value {
      list {
        shape {
          dim {
            size: 16
          }
          dim {
            size: 112
          }
          dim {
            size: 112
          }
          dim {
            size: 32
          }
        }
      }
    }
  }
}
node {
  name: "MobilenetV1/Conv2d_1_depthwise/depthwise_weights/Initializer/truncated_normal/shape"
  op: "Const"
  attr {
    key: "_class"
    value {
      list {
        s: "loc:@MobilenetV1/Conv2d_1_depthwise/depthwise_weights"
      }
    }
  }
  attr {
    key: "_output_shapes"
    value {
      list {
        shape {
          dim {
            size: 4
          }
        }
      }
    }
  }
  attr {
    key: "dtype"
    value {
      type: DT_INT32
    }
  }
  attr {
    key: "value"
    value {
      tensor {
        dtype: DT_INT32
        tensor_shape {
          dim {
            size: 4
          }
        }
        tensor_content: "\003\000\000\000\003\000\000\000 \000\000\000\001\000\000\000"
      }
    }
  }
}
node {
  name: "MobilenetV1/Conv2d_1_depthwise/depthwise_weights/Initializer/truncated_normal/mean"
  op: "Const"
  attr {
    key: "_class"
    value {
      list {
        s: "loc:@MobilenetV1/Conv2d_1_depthwise/depthwise_weights"
      }
    }
  }
  attr {
    key: "_output_shapes"
    value {
      list {
        shape {
        }
      }
    }
  }
  attr {
    key: "dtype"
    value {
      type: DT_FLOAT
    }
  }
  attr {
    key: "value"
    value {
      tensor {
        dtype: DT_FLOAT
        tensor_shape {
        }
        float_val: 0.0
      }
    }
  }
}
node {
  name: "MobilenetV1/Conv2d_1_depthwise/depthwise_weights/Initializer/truncated_normal/stddev"
  op: "Const"
  attr {
    key: "_class"
    value {
      list {
        s: "loc:@MobilenetV1/Conv2d_1_depthwise/depthwise_weights"
      }
    }
  }
  attr {
    key: "_output_shapes"
    value {
      list {
        shape {
        }
      }
    }
  }
  attr {
    key: "dtype"
    value {
      type: DT_FLOAT
    }
  }
  attr {
    key: "value"
    value {
      tensor {
        dtype: DT_FLOAT
        tensor_shape {
        }
        float_val: 0.09000000357627869
      }
    }
  }
}
node {
  name: "MobilenetV1/Conv2d_1_depthwise/depthwise_weights/Initializer/truncated_normal/TruncatedNormal"
  op: "TruncatedNormal"
  input: "MobilenetV1/Conv2d_1_depthwise/depthwise_weights/Initializer/truncated_normal/shape"
  attr {
    key: "T"
    value {
      type: DT_INT32
    }
  }
  attr {
    key: "_class"
    value {
      list {
        s: "loc:@MobilenetV1/Conv2d_1_depthwise/depthwise_weights"
      }
    }
  }
  attr {
    key: "_output_shapes"
    value {
      list {
        shape {
          dim {
            size: 3
          }
          dim {
            size: 3
          }
          dim {
            size: 32
          }
          dim {
            size: 1
          }
        }
      }
    }
  }
  attr {
    key: "dtype"
    value {
      type: DT_FLOAT
    }
  }
  attr {
    key: "seed"
    value {
      i: 0
    }
  }
  attr {
    key: "seed2"
    value {
      i: 0
    }
  }
}
node {
  name: "MobilenetV1/Conv2d_1_depthwise/depthwise_weights/Initializer/truncated_normal/mul"
  op: "Mul"
  input: "MobilenetV1/Conv2d_1_depthwise/depthwise_weights/Initializer/truncated_normal/TruncatedNormal"
  input: "MobilenetV1/Conv2d_1_depthwise/depthwise_weights/Initializer/truncated_normal/stddev"
  attr {
    key: "T"
    value {
      type: DT_FLOAT
    }
  }
  attr {
    key: "_class"
    value {
      list {
        s: "loc:@MobilenetV1/Conv2d_1_depthwise/depthwise_weights"
      }
    }
  }
  attr {
    key: "_output_shapes"
    value {
      list {
        shape {
          dim {
            size: 3
          }
          dim {
            size: 3
          }
          dim {
            size: 32
          }
          dim {
            size: 1
          }
        }
      }
    }
  }
}
node {
  name: "MobilenetV1/Conv2d_1_depthwise/depthwise_weights/Initializer/truncated_normal"
  op: "Add"
  input: "MobilenetV1/Conv2d_1_depthwise/depthwise_weights/Initializer/truncated_normal/mul"
  input: "MobilenetV1/Conv2d_1_depthwise/depthwise_weights/Initializer/truncated_normal/mean"
  attr {
    key: "T"
    value {
      type: DT_FLOAT
    }
  }
  attr {
    key: "_class"
    value {
      list {
        s: "loc:@MobilenetV1/Conv2d_1_depthwise/depthwise_weights"
      }
    }
  }
  attr {
    key: "_output_shapes"
    value {
      list {
        shape {
          dim {
            size: 3
          }
          dim {
            size: 3
          }
          dim {
            size: 32
          }
          dim {
            size: 1
          }
        }
      }
    }
  }
}
node {
  name: "MobilenetV1/Conv2d_1_depthwise/depthwise_weights"
  op: "VariableV2"
  attr {
    key: "_class"
    value {
      list {
        s: "loc:@MobilenetV1/Conv2d_1_depthwise/depthwise_weights"
      }
    }
  }
  attr {
    key: "_output_shapes"
    value {
      list {
        shape {
          dim {
            size: 3
          }
          dim {
            size: 3
          }
          dim {
            size: 32
          }
          dim {
            size: 1
          }
        }
      }
    }
  }
  attr {
    key: "container"
    value {
      s: ""
    }
  }
  attr {
    key: "dtype"
    value {
      type: DT_FLOAT
    }
  }
  attr {
    key: "shape"
    value {
      shape {
        dim {
          size: 3
        }
        dim {
          size: 3
        }
        dim {
          size: 32
        }
        dim {
          size: 1
        }
      }
    }
  }
  attr {
    key: "shared_name"
    value {
      s: ""
    }
  }
}
node {
  name: "MobilenetV1/Conv2d_1_depthwise/depthwise_weights/Assign"
  op: "Assign"
  input: "MobilenetV1/Conv2d_1_depthwise/depthwise_weights"
  input: "MobilenetV1/Conv2d_1_depthwise/depthwise_weights/Initializer/truncated_normal"
  attr {
    key: "T"
    value {
      type: DT_FLOAT
    }
  }
  attr {
    key: "_class"
    value {
      list {
        s: "loc:@MobilenetV1/Conv2d_1_depthwise/depthwise_weights"
      }
    }
  }
  attr {
    key: "_output_shapes"
    value {
      list {
        shape {
          dim {
            size: 3
          }
          dim {
            size: 3
          }
          dim {
            size: 32
          }
          dim {
            size: 1
          }
        }
      }
    }
  }
  attr {
    key: "use_locking"
    value {
      b: true
    }
  }
  attr {
    key: "validate_shape"
    value {
      b: true
    }
  }
}
node {
  name: "MobilenetV1/Conv2d_1_depthwise/depthwise_weights/read"
  op: "Identity"
  input: "MobilenetV1/Conv2d_1_depthwise/depthwise_weights"
  attr {
    key: "T"
    value {
      type: DT_FLOAT
    }
  }
  attr {
    key: "_class"
    value {
      list {
        s: "loc:@MobilenetV1/Conv2d_1_depthwise/depthwise_weights"
      }
    }
  }
  attr {
    key: "_output_shapes"
    value {
      list {
        shape {
          dim {
            size: 3
          }
          dim {
            size: 3
          }
          dim {
            size: 32
          }
          dim {
            size: 1
          }
        }
      }
    }
  }
}
node {
  name: "MobilenetV1/MobilenetV1/Conv2d_1_depthwise/depthwise/Shape"
  op: "Const"
  attr {
    key: "_output_shapes"
    value {
      list {
        shape {
          dim {
            size: 4
          }
        }
      }
    }
  }
  attr {
    key: "dtype"
    value {
      type: DT_INT32
    }
  }
  attr {
    key: "value"
    value {
      tensor {
        dtype: DT_INT32
        tensor_shape {
          dim {
            size: 4
          }
        }
        tensor_content: "\003\000\000\000\003\000\000\000 \000\000\000\001\000\000\000"
      }
    }
  }
}
node {
  name: "MobilenetV1/MobilenetV1/Conv2d_1_depthwise/depthwise/dilation_rate"
  op: "Const"
  attr {
    key: "_output_shapes"
    value {
      list {
        shape {
          dim {
            size: 2
          }
        }
      }
    }
  }
  attr {
    key: "dtype"
    value {
      type: DT_INT32
    }
  }
  attr {
    key: "value"
    value {
      tensor {
        dtype: DT_INT32
        tensor_shape {
          dim {
            size: 2
          }
        }
        tensor_content: "\001\000\000\000\001\000\000\000"
      }
    }
  }
}
node {
  name: "MobilenetV1/MobilenetV1/Conv2d_1_depthwise/depthwise"
  op: "DepthwiseConv2dNative"
  input: "MobilenetV1/MobilenetV1/Conv2d_0/Relu6"
  input: "MobilenetV1/Conv2d_1_depthwise/depthwise_weights/read"
  attr {
    key: "T"
    value {
      type: DT_FLOAT
    }
  }
  attr {
    key: "_output_shapes"
    value {
      list {
        shape {
          dim {
            size: 16
          }
          dim {
            size: 112
          }
          dim {
            size: 112
          }
          dim {
            size: 32
          }
        }
      }
    }
  }
  attr {
    key: "data_format"
    value {
      s: "NHWC"
    }
  }
  attr {
    key: "dilations"
    value {
      list {
        i: 1
        i: 1
        i: 1
        i: 1
      }
    }
  }
  attr {
    key: "padding"
    value {
      s: "SAME"
    }
  }
  attr {
    key: "strides"
    value {
      list {
        i: 1
        i: 1
        i: 1
        i: 1
      }
    }
  }
}
node {
  name: "MobilenetV1/Conv2d_1_depthwise/BatchNorm/gamma/Initializer/ones"
  op: "Const"
  attr {
    key: "_class"
    value {
      list {
        s: "loc:@MobilenetV1/Conv2d_1_depthwise/BatchNorm/gamma"
      }
    }
  }
  attr {
    key: "_output_shapes"
    value {
      list {
        shape {
          dim {
            size: 32
          }
        }
      }
    }
  }
  attr {
    key: "dtype"
    value {
      type: DT_FLOAT
    }
  }
  attr {
    key: "value"
    value {
      tensor {
        dtype: DT_FLOAT
        tensor_shape {
          dim {
            size: 32
          }
        }
        float_val: 1.0
      }
    }
  }
}
node {
  name: "MobilenetV1/Conv2d_1_depthwise/BatchNorm/gamma"
  op: "VariableV2"
  attr {
    key: "_class"
    value {
      list {
        s: "loc:@MobilenetV1/Conv2d_1_depthwise/BatchNorm/gamma"
      }
    }
  }
  attr {
    key: "_output_shapes"
    value {
      list {
        shape {
          dim {
            size: 32
          }
        }
      }
    }
  }
  attr {
    key: "container"
    value {
      s: ""
    }
  }
  attr {
    key: "dtype"
    value {
      type: DT_FLOAT
    }
  }
  attr {
    key: "shape"
    value {
      shape {
        dim {
          size: 32
        }
      }
    }
  }
  attr {
    key: "shared_name"
    value {
      s: ""
    }
  }
}
node {
  name: "MobilenetV1/Conv2d_1_depthwise/BatchNorm/gamma/Assign"
  op: "Assign"
  input: "MobilenetV1/Conv2d_1_depthwise/BatchNorm/gamma"
  input: "MobilenetV1/Conv2d_1_depthwise/BatchNorm/gamma/Initializer/ones"
  attr {
    key: "T"
    value {
      type: DT_FLOAT
    }
  }
  attr {
    key: "_class"
    value {
      list {
        s: "loc:@MobilenetV1/Conv2d_1_depthwise/BatchNorm/gamma"
      }
    }
  }
  attr {
    key: "_output_shapes"
    value {
      list {
        shape {
          dim {
            size: 32
          }
        }
      }
    }
  }
  attr {
    key: "use_locking"
    value {
      b: true
    }
  }
  attr {
    key: "validate_shape"
    value {
      b: true
    }
  }
}
node {
  name: "MobilenetV1/Conv2d_1_depthwise/BatchNorm/gamma/read"
  op: "Identity"
  input: "MobilenetV1/Conv2d_1_depthwise/BatchNorm/gamma"
  attr {
    key: "T"
    value {
      type: DT_FLOAT
    }
  }
  attr {
    key: "_class"
    value {
      list {
        s: "loc:@MobilenetV1/Conv2d_1_depthwise/BatchNorm/gamma"
      }
    }
  }
  attr {
    key: "_output_shapes"
    value {
      list {
        shape {
          dim {
            size: 32
          }
        }
      }
    }
  }
}
node {
  name: "MobilenetV1/Conv2d_1_depthwise/BatchNorm/beta/Initializer/zeros"
  op: "Const"
  attr {
    key: "_class"
    value {
      list {
        s: "loc:@MobilenetV1/Conv2d_1_depthwise/BatchNorm/beta"
      }
    }
  }
  attr {
    key: "_output_shapes"
    value {
      list {
        shape {
          dim {
            size: 32
          }
        }
      }
    }
  }
  attr {
    key: "dtype"
    value {
      type: DT_FLOAT
    }
  }
  attr {
    key: "value"
    value {
      tensor {
        dtype: DT_FLOAT
        tensor_shape {
          dim {
            size: 32
          }
        }
        float_val: 0.0
      }
    }
  }
}
node {
  name: "MobilenetV1/Conv2d_1_depthwise/BatchNorm/beta"
  op: "VariableV2"
  attr {
    key: "_class"
    value {
      list {
        s: "loc:@MobilenetV1/Conv2d_1_depthwise/BatchNorm/beta"
      }
    }
  }
  attr {
    key: "_output_shapes"
    value {
      list {
        shape {
          dim {
            size: 32
          }
        }
      }
    }
  }
  attr {
    key: "container"
    value {
      s: ""
    }
  }
  attr {
    key: "dtype"
    value {
      type: DT_FLOAT
    }
  }
  attr {
    key: "shape"
    value {
      shape {
        dim {
          size: 32
        }
      }
    }
  }
  attr {
    key: "shared_name"
    value {
      s: ""
    }
  }
}
node {
  name: "MobilenetV1/Conv2d_1_depthwise/BatchNorm/beta/Assign"
  op: "Assign"
  input: "MobilenetV1/Conv2d_1_depthwise/BatchNorm/beta"
  input: "MobilenetV1/Conv2d_1_depthwise/BatchNorm/beta/Initializer/zeros"
  attr {
    key: "T"
    value {
      type: DT_FLOAT
    }
  }
  attr {
    key: "_class"
    value {
      list {
        s: "loc:@MobilenetV1/Conv2d_1_depthwise/BatchNorm/beta"
      }
    }
  }
  attr {
    key: "_output_shapes"
    value {
      list {
        shape {
          dim {
            size: 32
          }
        }
      }
    }
  }
  attr {
    key: "use_locking"
    value {
      b: true
    }
  }
  attr {
    key: "validate_shape"
    value {
      b: true
    }
  }
}
node {
  name: "MobilenetV1/Conv2d_1_depthwise/BatchNorm/beta/read"
  op: "Identity"
  input: "MobilenetV1/Conv2d_1_depthwise/BatchNorm/beta"
  attr {
    key: "T"
    value {
      type: DT_FLOAT
    }
  }
  attr {
    key: "_class"
    value {
      list {
        s: "loc:@MobilenetV1/Conv2d_1_depthwise/BatchNorm/beta"
      }
    }
  }
  attr {
    key: "_output_shapes"
    value {
      list {
        shape {
          dim {
            size: 32
          }
        }
      }
    }
  }
}
node {
  name: "MobilenetV1/Conv2d_1_depthwise/BatchNorm/moving_mean/Initializer/zeros"
  op: "Const"
  attr {
    key: "_class"
    value {
      list {
        s: "loc:@MobilenetV1/Conv2d_1_depthwise/BatchNorm/moving_mean"
      }
    }
  }
  attr {
    key: "_output_shapes"
    value {
      list {
        shape {
          dim {
            size: 32
          }
        }
      }
    }
  }
  attr {
    key: "dtype"
    value {
      type: DT_FLOAT
    }
  }
  attr {
    key: "value"
    value {
      tensor {
        dtype: DT_FLOAT
        tensor_shape {
          dim {
            size: 32
          }
        }
        float_val: 0.0
      }
    }
  }
}
node {
  name: "MobilenetV1/Conv2d_1_depthwise/BatchNorm/moving_mean"
  op: "VariableV2"
  attr {
    key: "_class"
    value {
      list {
        s: "loc:@MobilenetV1/Conv2d_1_depthwise/BatchNorm/moving_mean"
      }
    }
  }
  attr {
    key: "_output_shapes"
    value {
      list {
        shape {
          dim {
            size: 32
          }
        }
      }
    }
  }
  attr {
    key: "container"
    value {
      s: ""
    }
  }
  attr {
    key: "dtype"
    value {
      type: DT_FLOAT
    }
  }
  attr {
    key: "shape"
    value {
      shape {
        dim {
          size: 32
        }
      }
    }
  }
  attr {
    key: "shared_name"
    value {
      s: ""
    }
  }
}
node {
  name: "MobilenetV1/Conv2d_1_depthwise/BatchNorm/moving_mean/Assign"
  op: "Assign"
  input: "MobilenetV1/Conv2d_1_depthwise/BatchNorm/moving_mean"
  input: "MobilenetV1/Conv2d_1_depthwise/BatchNorm/moving_mean/Initializer/zeros"
  attr {
    key: "T"
    value {
      type: DT_FLOAT
    }
  }
  attr {
    key: "_class"
    value {
      list {
        s: "loc:@MobilenetV1/Conv2d_1_depthwise/BatchNorm/moving_mean"
      }
    }
  }
  attr {
    key: "_output_shapes"
    value {
      list {
        shape {
          dim {
            size: 32
          }
        }
      }
    }
  }
  attr {
    key: "use_locking"
    value {
      b: true
    }
  }
  attr {
    key: "validate_shape"
    value {
      b: true
    }
  }
}
node {
  name: "MobilenetV1/Conv2d_1_depthwise/BatchNorm/moving_mean/read"
  op: "Identity"
  input: "MobilenetV1/Conv2d_1_depthwise/BatchNorm/moving_mean"
  attr {
    key: "T"
    value {
      type: DT_FLOAT
    }
  }
  attr {
    key: "_class"
    value {
      list {
        s: "loc:@MobilenetV1/Conv2d_1_depthwise/BatchNorm/moving_mean"
      }
    }
  }
  attr {
    key: "_output_shapes"
    value {
      list {
        shape {
          dim {
            size: 32
          }
        }
      }
    }
  }
}
node {
  name: "MobilenetV1/Conv2d_1_depthwise/BatchNorm/moving_variance/Initializer/ones"
  op: "Const"
  attr {
    key: "_class"
    value {
      list {
        s: "loc:@MobilenetV1/Conv2d_1_depthwise/BatchNorm/moving_variance"
      }
    }
  }
  attr {
    key: "_output_shapes"
    value {
      list {
        shape {
          dim {
            size: 32
          }
        }
      }
    }
  }
  attr {
    key: "dtype"
    value {
      type: DT_FLOAT
    }
  }
  attr {
    key: "value"
    value {
      tensor {
        dtype: DT_FLOAT
        tensor_shape {
          dim {
            size: 32
          }
        }
        float_val: 1.0
      }
    }
  }
}
node {
  name: "MobilenetV1/Conv2d_1_depthwise/BatchNorm/moving_variance"
  op: "VariableV2"
  attr {
    key: "_class"
    value {
      list {
        s: "loc:@MobilenetV1/Conv2d_1_depthwise/BatchNorm/moving_variance"
      }
    }
  }
  attr {
    key: "_output_shapes"
    value {
      list {
        shape {
          dim {
            size: 32
          }
        }
      }
    }
  }
  attr {
    key: "container"
    value {
      s: ""
    }
  }
  attr {
    key: "dtype"
    value {
      type: DT_FLOAT
    }
  }
  attr {
    key: "shape"
    value {
      shape {
        dim {
          size: 32
        }
      }
    }
  }
  attr {
    key: "shared_name"
    value {
      s: ""
    }
  }
}
node {
  name: "MobilenetV1/Conv2d_1_depthwise/BatchNorm/moving_variance/Assign"
  op: "Assign"
  input: "MobilenetV1/Conv2d_1_depthwise/BatchNorm/moving_variance"
  input: "MobilenetV1/Conv2d_1_depthwise/BatchNorm/moving_variance/Initializer/ones"
  attr {
    key: "T"
    value {
      type: DT_FLOAT
    }
  }
  attr {
    key: "_class"
    value {
      list {
        s: "loc:@MobilenetV1/Conv2d_1_depthwise/BatchNorm/moving_variance"
      }
    }
  }
  attr {
    key: "_output_shapes"
    value {
      list {
        shape {
          dim {
            size: 32
          }
        }
      }
    }
  }
  attr {
    key: "use_locking"
    value {
      b: true
    }
  }
  attr {
    key: "validate_shape"
    value {
      b: true
    }
  }
}
node {
  name: "MobilenetV1/Conv2d_1_depthwise/BatchNorm/moving_variance/read"
  op: "Identity"
  input: "MobilenetV1/Conv2d_1_depthwise/BatchNorm/moving_variance"
  attr {
    key: "T"
    value {
      type: DT_FLOAT
    }
  }
  attr {
    key: "_class"
    value {
      list {
        s: "loc:@MobilenetV1/Conv2d_1_depthwise/BatchNorm/moving_variance"
      }
    }
  }
  attr {
    key: "_output_shapes"
    value {
      list {
        shape {
          dim {
            size: 32
          }
        }
      }
    }
  }
}
node {
  name: "MobilenetV1/MobilenetV1/Conv2d_1_depthwise/BatchNorm/Const"
  op: "Const"
  attr {
    key: "_output_shapes"
    value {
      list {
        shape {
          dim {
          }
        }
      }
    }
  }
  attr {
    key: "dtype"
    value {
      type: DT_FLOAT
    }
  }
  attr {
    key: "value"
    value {
      tensor {
        dtype: DT_FLOAT
        tensor_shape {
          dim {
          }
        }
      }
    }
  }
}
node {
  name: "MobilenetV1/MobilenetV1/Conv2d_1_depthwise/BatchNorm/Const_1"
  op: "Const"
  attr {
    key: "_output_shapes"
    value {
      list {
        shape {
          dim {
          }
        }
      }
    }
  }
  attr {
    key: "dtype"
    value {
      type: DT_FLOAT
    }
  }
  attr {
    key: "value"
    value {
      tensor {
        dtype: DT_FLOAT
        tensor_shape {
          dim {
          }
        }
      }
    }
  }
}
node {
  name: "MobilenetV1/MobilenetV1/Conv2d_1_depthwise/BatchNorm/FusedBatchNorm"
  op: "FusedBatchNorm"
  input: "MobilenetV1/MobilenetV1/Conv2d_1_depthwise/depthwise"
  input: "MobilenetV1/Conv2d_1_depthwise/BatchNorm/gamma/read"
  input: "MobilenetV1/Conv2d_1_depthwise/BatchNorm/beta/read"
  input: "MobilenetV1/MobilenetV1/Conv2d_1_depthwise/BatchNorm/Const"
  input: "MobilenetV1/MobilenetV1/Conv2d_1_depthwise/BatchNorm/Const_1"
  attr {
    key: "T"
    value {
      type: DT_FLOAT
    }
  }
  attr {
    key: "_output_shapes"
    value {
      list {
        shape {
          dim {
            size: 16
          }
          dim {
            size: 112
          }
          dim {
            size: 112
          }
          dim {
            size: 32
          }
        }
        shape {
          dim {
            size: 32
          }
        }
        shape {
          dim {
            size: 32
          }
        }
        shape {
          dim {
            size: 32
          }
        }
        shape {
          dim {
            size: 32
          }
        }
      }
    }
  }
  attr {
    key: "data_format"
    value {
      s: "NHWC"
    }
  }
  attr {
    key: "epsilon"
    value {
      f: 0.0010000000474974513
    }
  }
  attr {
    key: "is_training"
    value {
      b: true
    }
  }
}
node {
  name: "MobilenetV1/MobilenetV1/Conv2d_1_depthwise/BatchNorm/Const_2"
  op: "Const"
  attr {
    key: "_output_shapes"
    value {
      list {
        shape {
        }
      }
    }
  }
  attr {
    key: "dtype"
    value {
      type: DT_FLOAT
    }
  }
  attr {
    key: "value"
    value {
      tensor {
        dtype: DT_FLOAT
        tensor_shape {
        }
        float_val: 0.9997000098228455
      }
    }
  }
}
node {
  name: "MobilenetV1/MobilenetV1/Conv2d_1_depthwise/BatchNorm/AssignMovingAvg/sub/x"
  op: "Const"
  attr {
    key: "_output_shapes"
    value {
      list {
        shape {
        }
      }
    }
  }
  attr {
    key: "dtype"
    value {
      type: DT_FLOAT
    }
  }
  attr {
    key: "value"
    value {
      tensor {
        dtype: DT_FLOAT
        tensor_shape {
        }
        float_val: 1.0
      }
    }
  }
}
node {
  name: "MobilenetV1/MobilenetV1/Conv2d_1_depthwise/BatchNorm/AssignMovingAvg/sub"
  op: "Sub"
  input: "MobilenetV1/MobilenetV1/Conv2d_1_depthwise/BatchNorm/AssignMovingAvg/sub/x"
  input: "MobilenetV1/MobilenetV1/Conv2d_1_depthwise/BatchNorm/Const_2"
  attr {
    key: "T"
    value {
      type: DT_FLOAT
    }
  }
  attr {
    key: "_output_shapes"
    value {
      list {
        shape {
        }
      }
    }
  }
}
node {
  name: "MobilenetV1/MobilenetV1/Conv2d_1_depthwise/BatchNorm/AssignMovingAvg/sub_1"
  op: "Sub"
  input: "MobilenetV1/Conv2d_1_depthwise/BatchNorm/moving_mean/read"
  input: "MobilenetV1/MobilenetV1/Conv2d_1_depthwise/BatchNorm/FusedBatchNorm:1"
  attr {
    key: "T"
    value {
      type: DT_FLOAT
    }
  }
  attr {
    key: "_output_shapes"
    value {
      list {
        shape {
          dim {
            size: 32
          }
        }
      }
    }
  }
}
node {
  name: "MobilenetV1/MobilenetV1/Conv2d_1_depthwise/BatchNorm/AssignMovingAvg/mul"
  op: "Mul"
  input: "MobilenetV1/MobilenetV1/Conv2d_1_depthwise/BatchNorm/AssignMovingAvg/sub_1"
  input: "MobilenetV1/MobilenetV1/Conv2d_1_depthwise/BatchNorm/AssignMovingAvg/sub"
  attr {
    key: "T"
    value {
      type: DT_FLOAT
    }
  }
  attr {
    key: "_output_shapes"
    value {
      list {
        shape {
          dim {
            size: 32
          }
        }
      }
    }
  }
}
node {
  name: "MobilenetV1/MobilenetV1/Conv2d_1_depthwise/BatchNorm/AssignMovingAvg"
  op: "AssignSub"
  input: "MobilenetV1/Conv2d_1_depthwise/BatchNorm/moving_mean"
  input: "MobilenetV1/MobilenetV1/Conv2d_1_depthwise/BatchNorm/AssignMovingAvg/mul"
  attr {
    key: "T"
    value {
      type: DT_FLOAT
    }
  }
  attr {
    key: "_class"
    value {
      list {
        s: "loc:@MobilenetV1/Conv2d_1_depthwise/BatchNorm/moving_mean"
      }
    }
  }
  attr {
    key: "_output_shapes"
    value {
      list {
        shape {
          dim {
            size: 32
          }
        }
      }
    }
  }
  attr {
    key: "use_locking"
    value {
      b: false
    }
  }
}
node {
  name: "MobilenetV1/MobilenetV1/Conv2d_1_depthwise/BatchNorm/AssignMovingAvg_1/sub/x"
  op: "Const"
  attr {
    key: "_output_shapes"
    value {
      list {
        shape {
        }
      }
    }
  }
  attr {
    key: "dtype"
    value {
      type: DT_FLOAT
    }
  }
  attr {
    key: "value"
    value {
      tensor {
        dtype: DT_FLOAT
        tensor_shape {
        }
        float_val: 1.0
      }
    }
  }
}
node {
  name: "MobilenetV1/MobilenetV1/Conv2d_1_depthwise/BatchNorm/AssignMovingAvg_1/sub"
  op: "Sub"
  input: "MobilenetV1/MobilenetV1/Conv2d_1_depthwise/BatchNorm/AssignMovingAvg_1/sub/x"
  input: "MobilenetV1/MobilenetV1/Conv2d_1_depthwise/BatchNorm/Const_2"
  attr {
    key: "T"
    value {
      type: DT_FLOAT
    }
  }
  attr {
    key: "_output_shapes"
    value {
      list {
        shape {
        }
      }
    }
  }
}
node {
  name: "MobilenetV1/MobilenetV1/Conv2d_1_depthwise/BatchNorm/AssignMovingAvg_1/sub_1"
  op: "Sub"
  input: "MobilenetV1/Conv2d_1_depthwise/BatchNorm/moving_variance/read"
  input: "MobilenetV1/MobilenetV1/Conv2d_1_depthwise/BatchNorm/FusedBatchNorm:2"
  attr {
    key: "T"
    value {
      type: DT_FLOAT
    }
  }
  attr {
    key: "_output_shapes"
    value {
      list {
        shape {
          dim {
            size: 32
          }
        }
      }
    }
  }
}
node {
  name: "MobilenetV1/MobilenetV1/Conv2d_1_depthwise/BatchNorm/AssignMovingAvg_1/mul"
  op: "Mul"
  input: "MobilenetV1/MobilenetV1/Conv2d_1_depthwise/BatchNorm/AssignMovingAvg_1/sub_1"
  input: "MobilenetV1/MobilenetV1/Conv2d_1_depthwise/BatchNorm/AssignMovingAvg_1/sub"
  attr {
    key: "T"
    value {
      type: DT_FLOAT
    }
  }
  attr {
    key: "_output_shapes"
    value {
      list {
        shape {
          dim {
            size: 32
          }
        }
      }
    }
  }
}
node {
  name: "MobilenetV1/MobilenetV1/Conv2d_1_depthwise/BatchNorm/AssignMovingAvg_1"
  op: "AssignSub"
  input: "MobilenetV1/Conv2d_1_depthwise/BatchNorm/moving_variance"
  input: "MobilenetV1/MobilenetV1/Conv2d_1_depthwise/BatchNorm/AssignMovingAvg_1/mul"
  attr {
    key: "T"
    value {
      type: DT_FLOAT
    }
  }
  attr {
    key: "_class"
    value {
      list {
        s: "loc:@MobilenetV1/Conv2d_1_depthwise/BatchNorm/moving_variance"
      }
    }
  }
  attr {
    key: "_output_shapes"
    value {
      list {
        shape {
          dim {
            size: 32
          }
        }
      }
    }
  }
  attr {
    key: "use_locking"
    value {
      b: false
    }
  }
}
node {
  name: "MobilenetV1/MobilenetV1/Conv2d_1_depthwise/Relu6"
  op: "Relu6"
  input: "MobilenetV1/MobilenetV1/Conv2d_1_depthwise/BatchNorm/FusedBatchNorm"
  attr {
    key: "T"
    value {
      type: DT_FLOAT
    }
  }
  attr {
    key: "_output_shapes"
    value {
      list {
        shape {
          dim {
            size: 16
          }
          dim {
            size: 112
          }
          dim {
            size: 112
          }
          dim {
            size: 32
          }
        }
      }
    }
  }
}
node {
  name: "MobilenetV1/Conv2d_1_pointwise/weights/Initializer/truncated_normal/shape"
  op: "Const"
  attr {
    key: "_class"
    value {
      list {
        s: "loc:@MobilenetV1/Conv2d_1_pointwise/weights"
      }
    }
  }
  attr {
    key: "_output_shapes"
    value {
      list {
        shape {
          dim {
            size: 4
          }
        }
      }
    }
  }
  attr {
    key: "dtype"
    value {
      type: DT_INT32
    }
  }
  attr {
    key: "value"
    value {
      tensor {
        dtype: DT_INT32
        tensor_shape {
          dim {
            size: 4
          }
        }
        tensor_content: "\001\000\000\000\001\000\000\000 \000\000\000@\000\000\000"
      }
    }
  }
}
node {
  name: "MobilenetV1/Conv2d_1_pointwise/weights/Initializer/truncated_normal/mean"
  op: "Const"
  attr {
    key: "_class"
    value {
      list {
        s: "loc:@MobilenetV1/Conv2d_1_pointwise/weights"
      }
    }
  }
  attr {
    key: "_output_shapes"
    value {
      list {
        shape {
        }
      }
    }
  }
  attr {
    key: "dtype"
    value {
      type: DT_FLOAT
    }
  }
  attr {
    key: "value"
    value {
      tensor {
        dtype: DT_FLOAT
        tensor_shape {
        }
        float_val: 0.0
      }
    }
  }
}
node {
  name: "MobilenetV1/Conv2d_1_pointwise/weights/Initializer/truncated_normal/stddev"
  op: "Const"
  attr {
    key: "_class"
    value {
      list {
        s: "loc:@MobilenetV1/Conv2d_1_pointwise/weights"
      }
    }
  }
  attr {
    key: "_output_shapes"
    value {
      list {
        shape {
        }
      }
    }
  }
  attr {
    key: "dtype"
    value {
      type: DT_FLOAT
    }
  }
  attr {
    key: "value"
    value {
      tensor {
        dtype: DT_FLOAT
        tensor_shape {
        }
        float_val: 0.09000000357627869
      }
    }
  }
}
node {
  name: "MobilenetV1/Conv2d_1_pointwise/weights/Initializer/truncated_normal/TruncatedNormal"
  op: "TruncatedNormal"
  input: "MobilenetV1/Conv2d_1_pointwise/weights/Initializer/truncated_normal/shape"
  attr {
    key: "T"
    value {
      type: DT_INT32
    }
  }
  attr {
    key: "_class"
    value {
      list {
        s: "loc:@MobilenetV1/Conv2d_1_pointwise/weights"
      }
    }
  }
  attr {
    key: "_output_shapes"
    value {
      list {
        shape {
          dim {
            size: 1
          }
          dim {
            size: 1
          }
          dim {
            size: 32
          }
          dim {
            size: 64
          }
        }
      }
    }
  }
  attr {
    key: "dtype"
    value {
      type: DT_FLOAT
    }
  }
  attr {
    key: "seed"
    value {
      i: 0
    }
  }
  attr {
    key: "seed2"
    value {
      i: 0
    }
  }
}
node {
  name: "MobilenetV1/Conv2d_1_pointwise/weights/Initializer/truncated_normal/mul"
  op: "Mul"
  input: "MobilenetV1/Conv2d_1_pointwise/weights/Initializer/truncated_normal/TruncatedNormal"
  input: "MobilenetV1/Conv2d_1_pointwise/weights/Initializer/truncated_normal/stddev"
  attr {
    key: "T"
    value {
      type: DT_FLOAT
    }
  }
  attr {
    key: "_class"
    value {
      list {
        s: "loc:@MobilenetV1/Conv2d_1_pointwise/weights"
      }
    }
  }
  attr {
    key: "_output_shapes"
    value {
      list {
        shape {
          dim {
            size: 1
          }
          dim {
            size: 1
          }
          dim {
            size: 32
          }
          dim {
            size: 64
          }
        }
      }
    }
  }
}
node {
  name: "MobilenetV1/Conv2d_1_pointwise/weights/Initializer/truncated_normal"
  op: "Add"
  input: "MobilenetV1/Conv2d_1_pointwise/weights/Initializer/truncated_normal/mul"
  input: "MobilenetV1/Conv2d_1_pointwise/weights/Initializer/truncated_normal/mean"
  attr {
    key: "T"
    value {
      type: DT_FLOAT
    }
  }
  attr {
    key: "_class"
    value {
      list {
        s: "loc:@MobilenetV1/Conv2d_1_pointwise/weights"
      }
    }
  }
  attr {
    key: "_output_shapes"
    value {
      list {
        shape {
          dim {
            size: 1
          }
          dim {
            size: 1
          }
          dim {
            size: 32
          }
          dim {
            size: 64
          }
        }
      }
    }
  }
}
node {
  name: "MobilenetV1/Conv2d_1_pointwise/weights"
  op: "VariableV2"
  attr {
    key: "_class"
    value {
      list {
        s: "loc:@MobilenetV1/Conv2d_1_pointwise/weights"
      }
    }
  }
  attr {
    key: "_output_shapes"
    value {
      list {
        shape {
          dim {
            size: 1
          }
          dim {
            size: 1
          }
          dim {
            size: 32
          }
          dim {
            size: 64
          }
        }
      }
    }
  }
  attr {
    key: "container"
    value {
      s: ""
    }
  }
  attr {
    key: "dtype"
    value {
      type: DT_FLOAT
    }
  }
  attr {
    key: "shape"
    value {
      shape {
        dim {
          size: 1
        }
        dim {
          size: 1
        }
        dim {
          size: 32
        }
        dim {
          size: 64
        }
      }
    }
  }
  attr {
    key: "shared_name"
    value {
      s: ""
    }
  }
}
node {
  name: "MobilenetV1/Conv2d_1_pointwise/weights/Assign"
  op: "Assign"
  input: "MobilenetV1/Conv2d_1_pointwise/weights"
  input: "MobilenetV1/Conv2d_1_pointwise/weights/Initializer/truncated_normal"
  attr {
    key: "T"
    value {
      type: DT_FLOAT
    }
  }
  attr {
    key: "_class"
    value {
      list {
        s: "loc:@MobilenetV1/Conv2d_1_pointwise/weights"
      }
    }
  }
  attr {
    key: "_output_shapes"
    value {
      list {
        shape {
          dim {
            size: 1
          }
          dim {
            size: 1
          }
          dim {
            size: 32
          }
          dim {
            size: 64
          }
        }
      }
    }
  }
  attr {
    key: "use_locking"
    value {
      b: true
    }
  }
  attr {
    key: "validate_shape"
    value {
      b: true
    }
  }
}
node {
  name: "MobilenetV1/Conv2d_1_pointwise/weights/read"
  op: "Identity"
  input: "MobilenetV1/Conv2d_1_pointwise/weights"
  attr {
    key: "T"
    value {
      type: DT_FLOAT
    }
  }
  attr {
    key: "_class"
    value {
      list {
        s: "loc:@MobilenetV1/Conv2d_1_pointwise/weights"
      }
    }
  }
  attr {
    key: "_output_shapes"
    value {
      list {
        shape {
          dim {
            size: 1
          }
          dim {
            size: 1
          }
          dim {
            size: 32
          }
          dim {
            size: 64
          }
        }
      }
    }
  }
}
node {
  name: "MobilenetV1/MobilenetV1/Conv2d_1_pointwise/kernel/Regularizer/l2_regularizer/scale"
  op: "Const"
  attr {
    key: "_class"
    value {
      list {
        s: "loc:@MobilenetV1/Conv2d_1_pointwise/weights"
      }
    }
  }
  attr {
    key: "_output_shapes"
    value {
      list {
        shape {
        }
      }
    }
  }
  attr {
    key: "dtype"
    value {
      type: DT_FLOAT
    }
  }
  attr {
    key: "value"
    value {
      tensor {
        dtype: DT_FLOAT
        tensor_shape {
        }
        float_val: 3.9999998989515007e-05
      }
    }
  }
}
node {
  name: "MobilenetV1/MobilenetV1/Conv2d_1_pointwise/kernel/Regularizer/l2_regularizer/L2Loss"
  op: "L2Loss"
  input: "MobilenetV1/Conv2d_1_pointwise/weights/read"
  attr {
    key: "T"
    value {
      type: DT_FLOAT
    }
  }
  attr {
    key: "_class"
    value {
      list {
        s: "loc:@MobilenetV1/Conv2d_1_pointwise/weights"
      }
    }
  }
  attr {
    key: "_output_shapes"
    value {
      list {
        shape {
        }
      }
    }
  }
}
node {
  name: "MobilenetV1/MobilenetV1/Conv2d_1_pointwise/kernel/Regularizer/l2_regularizer"
  op: "Mul"
  input: "MobilenetV1/MobilenetV1/Conv2d_1_pointwise/kernel/Regularizer/l2_regularizer/scale"
  input: "MobilenetV1/MobilenetV1/Conv2d_1_pointwise/kernel/Regularizer/l2_regularizer/L2Loss"
  attr {
    key: "T"
    value {
      type: DT_FLOAT
    }
  }
  attr {
    key: "_class"
    value {
      list {
        s: "loc:@MobilenetV1/Conv2d_1_pointwise/weights"
      }
    }
  }
  attr {
    key: "_output_shapes"
    value {
      list {
        shape {
        }
      }
    }
  }
}
node {
  name: "MobilenetV1/MobilenetV1/Conv2d_1_pointwise/dilation_rate"
  op: "Const"
  attr {
    key: "_output_shapes"
    value {
      list {
        shape {
          dim {
            size: 2
          }
        }
      }
    }
  }
  attr {
    key: "dtype"
    value {
      type: DT_INT32
    }
  }
  attr {
    key: "value"
    value {
      tensor {
        dtype: DT_INT32
        tensor_shape {
          dim {
            size: 2
          }
        }
        tensor_content: "\001\000\000\000\001\000\000\000"
      }
    }
  }
}
node {
  name: "MobilenetV1/MobilenetV1/Conv2d_1_pointwise/Conv2D"
  op: "Conv2D"
  input: "MobilenetV1/MobilenetV1/Conv2d_1_depthwise/Relu6"
  input: "MobilenetV1/Conv2d_1_pointwise/weights/read"
  attr {
    key: "T"
    value {
      type: DT_FLOAT
    }
  }
  attr {
    key: "_output_shapes"
    value {
      list {
        shape {
          dim {
            size: 16
          }
          dim {
            size: 112
          }
          dim {
            size: 112
          }
          dim {
            size: 64
          }
        }
      }
    }
  }
  attr {
    key: "data_format"
    value {
      s: "NHWC"
    }
  }
  attr {
    key: "dilations"
    value {
      list {
        i: 1
        i: 1
        i: 1
        i: 1
      }
    }
  }
  attr {
    key: "padding"
    value {
      s: "SAME"
    }
  }
  attr {
    key: "strides"
    value {
      list {
        i: 1
        i: 1
        i: 1
        i: 1
      }
    }
  }
  attr {
    key: "use_cudnn_on_gpu"
    value {
      b: true
    }
  }
}
node {
  name: "MobilenetV1/Conv2d_1_pointwise/BatchNorm/gamma/Initializer/ones"
  op: "Const"
  attr {
    key: "_class"
    value {
      list {
        s: "loc:@MobilenetV1/Conv2d_1_pointwise/BatchNorm/gamma"
      }
    }
  }
  attr {
    key: "_output_shapes"
    value {
      list {
        shape {
          dim {
            size: 64
          }
        }
      }
    }
  }
  attr {
    key: "dtype"
    value {
      type: DT_FLOAT
    }
  }
  attr {
    key: "value"
    value {
      tensor {
        dtype: DT_FLOAT
        tensor_shape {
          dim {
            size: 64
          }
        }
        float_val: 1.0
      }
    }
  }
}
node {
  name: "MobilenetV1/Conv2d_1_pointwise/BatchNorm/gamma"
  op: "VariableV2"
  attr {
    key: "_class"
    value {
      list {
        s: "loc:@MobilenetV1/Conv2d_1_pointwise/BatchNorm/gamma"
      }
    }
  }
  attr {
    key: "_output_shapes"
    value {
      list {
        shape {
          dim {
            size: 64
          }
        }
      }
    }
  }
  attr {
    key: "container"
    value {
      s: ""
    }
  }
  attr {
    key: "dtype"
    value {
      type: DT_FLOAT
    }
  }
  attr {
    key: "shape"
    value {
      shape {
        dim {
          size: 64
        }
      }
    }
  }
  attr {
    key: "shared_name"
    value {
      s: ""
    }
  }
}
node {
  name: "MobilenetV1/Conv2d_1_pointwise/BatchNorm/gamma/Assign"
  op: "Assign"
  input: "MobilenetV1/Conv2d_1_pointwise/BatchNorm/gamma"
  input: "MobilenetV1/Conv2d_1_pointwise/BatchNorm/gamma/Initializer/ones"
  attr {
    key: "T"
    value {
      type: DT_FLOAT
    }
  }
  attr {
    key: "_class"
    value {
      list {
        s: "loc:@MobilenetV1/Conv2d_1_pointwise/BatchNorm/gamma"
      }
    }
  }
  attr {
    key: "_output_shapes"
    value {
      list {
        shape {
          dim {
            size: 64
          }
        }
      }
    }
  }
  attr {
    key: "use_locking"
    value {
      b: true
    }
  }
  attr {
    key: "validate_shape"
    value {
      b: true
    }
  }
}
node {
  name: "MobilenetV1/Conv2d_1_pointwise/BatchNorm/gamma/read"
  op: "Identity"
  input: "MobilenetV1/Conv2d_1_pointwise/BatchNorm/gamma"
  attr {
    key: "T"
    value {
      type: DT_FLOAT
    }
  }
  attr {
    key: "_class"
    value {
      list {
        s: "loc:@MobilenetV1/Conv2d_1_pointwise/BatchNorm/gamma"
      }
    }
  }
  attr {
    key: "_output_shapes"
    value {
      list {
        shape {
          dim {
            size: 64
          }
        }
      }
    }
  }
}
node {
  name: "MobilenetV1/Conv2d_1_pointwise/BatchNorm/beta/Initializer/zeros"
  op: "Const"
  attr {
    key: "_class"
    value {
      list {
        s: "loc:@MobilenetV1/Conv2d_1_pointwise/BatchNorm/beta"
      }
    }
  }
  attr {
    key: "_output_shapes"
    value {
      list {
        shape {
          dim {
            size: 64
          }
        }
      }
    }
  }
  attr {
    key: "dtype"
    value {
      type: DT_FLOAT
    }
  }
  attr {
    key: "value"
    value {
      tensor {
        dtype: DT_FLOAT
        tensor_shape {
          dim {
            size: 64
          }
        }
        float_val: 0.0
      }
    }
  }
}
node {
  name: "MobilenetV1/Conv2d_1_pointwise/BatchNorm/beta"
  op: "VariableV2"
  attr {
    key: "_class"
    value {
      list {
        s: "loc:@MobilenetV1/Conv2d_1_pointwise/BatchNorm/beta"
      }
    }
  }
  attr {
    key: "_output_shapes"
    value {
      list {
        shape {
          dim {
            size: 64
          }
        }
      }
    }
  }
  attr {
    key: "container"
    value {
      s: ""
    }
  }
  attr {
    key: "dtype"
    value {
      type: DT_FLOAT
    }
  }
  attr {
    key: "shape"
    value {
      shape {
        dim {
          size: 64
        }
      }
    }
  }
  attr {
    key: "shared_name"
    value {
      s: ""
    }
  }
}
node {
  name: "MobilenetV1/Conv2d_1_pointwise/BatchNorm/beta/Assign"
  op: "Assign"
  input: "MobilenetV1/Conv2d_1_pointwise/BatchNorm/beta"
  input: "MobilenetV1/Conv2d_1_pointwise/BatchNorm/beta/Initializer/zeros"
  attr {
    key: "T"
    value {
      type: DT_FLOAT
    }
  }
  attr {
    key: "_class"
    value {
      list {
        s: "loc:@MobilenetV1/Conv2d_1_pointwise/BatchNorm/beta"
      }
    }
  }
  attr {
    key: "_output_shapes"
    value {
      list {
        shape {
          dim {
            size: 64
          }
        }
      }
    }
  }
  attr {
    key: "use_locking"
    value {
      b: true
    }
  }
  attr {
    key: "validate_shape"
    value {
      b: true
    }
  }
}
node {
  name: "MobilenetV1/Conv2d_1_pointwise/BatchNorm/beta/read"
  op: "Identity"
  input: "MobilenetV1/Conv2d_1_pointwise/BatchNorm/beta"
  attr {
    key: "T"
    value {
      type: DT_FLOAT
    }
  }
  attr {
    key: "_class"
    value {
      list {
        s: "loc:@MobilenetV1/Conv2d_1_pointwise/BatchNorm/beta"
      }
    }
  }
  attr {
    key: "_output_shapes"
    value {
      list {
        shape {
          dim {
            size: 64
          }
        }
      }
    }
  }
}
node {
  name: "MobilenetV1/Conv2d_1_pointwise/BatchNorm/moving_mean/Initializer/zeros"
  op: "Const"
  attr {
    key: "_class"
    value {
      list {
        s: "loc:@MobilenetV1/Conv2d_1_pointwise/BatchNorm/moving_mean"
      }
    }
  }
  attr {
    key: "_output_shapes"
    value {
      list {
        shape {
          dim {
            size: 64
          }
        }
      }
    }
  }
  attr {
    key: "dtype"
    value {
      type: DT_FLOAT
    }
  }
  attr {
    key: "value"
    value {
      tensor {
        dtype: DT_FLOAT
        tensor_shape {
          dim {
            size: 64
          }
        }
        float_val: 0.0
      }
    }
  }
}
node {
  name: "MobilenetV1/Conv2d_1_pointwise/BatchNorm/moving_mean"
  op: "VariableV2"
  attr {
    key: "_class"
    value {
      list {
        s: "loc:@MobilenetV1/Conv2d_1_pointwise/BatchNorm/moving_mean"
      }
    }
  }
  attr {
    key: "_output_shapes"
    value {
      list {
        shape {
          dim {
            size: 64
          }
        }
      }
    }
  }
  attr {
    key: "container"
    value {
      s: ""
    }
  }
  attr {
    key: "dtype"
    value {
      type: DT_FLOAT
    }
  }
  attr {
    key: "shape"
    value {
      shape {
        dim {
          size: 64
        }
      }
    }
  }
  attr {
    key: "shared_name"
    value {
      s: ""
    }
  }
}
node {
  name: "MobilenetV1/Conv2d_1_pointwise/BatchNorm/moving_mean/Assign"
  op: "Assign"
  input: "MobilenetV1/Conv2d_1_pointwise/BatchNorm/moving_mean"
  input: "MobilenetV1/Conv2d_1_pointwise/BatchNorm/moving_mean/Initializer/zeros"
  attr {
    key: "T"
    value {
      type: DT_FLOAT
    }
  }
  attr {
    key: "_class"
    value {
      list {
        s: "loc:@MobilenetV1/Conv2d_1_pointwise/BatchNorm/moving_mean"
      }
    }
  }
  attr {
    key: "_output_shapes"
    value {
      list {
        shape {
          dim {
            size: 64
          }
        }
      }
    }
  }
  attr {
    key: "use_locking"
    value {
      b: true
    }
  }
  attr {
    key: "validate_shape"
    value {
      b: true
    }
  }
}
node {
  name: "MobilenetV1/Conv2d_1_pointwise/BatchNorm/moving_mean/read"
  op: "Identity"
  input: "MobilenetV1/Conv2d_1_pointwise/BatchNorm/moving_mean"
  attr {
    key: "T"
    value {
      type: DT_FLOAT
    }
  }
  attr {
    key: "_class"
    value {
      list {
        s: "loc:@MobilenetV1/Conv2d_1_pointwise/BatchNorm/moving_mean"
      }
    }
  }
  attr {
    key: "_output_shapes"
    value {
      list {
        shape {
          dim {
            size: 64
          }
        }
      }
    }
  }
}
node {
  name: "MobilenetV1/Conv2d_1_pointwise/BatchNorm/moving_variance/Initializer/ones"
  op: "Const"
  attr {
    key: "_class"
    value {
      list {
        s: "loc:@MobilenetV1/Conv2d_1_pointwise/BatchNorm/moving_variance"
      }
    }
  }
  attr {
    key: "_output_shapes"
    value {
      list {
        shape {
          dim {
            size: 64
          }
        }
      }
    }
  }
  attr {
    key: "dtype"
    value {
      type: DT_FLOAT
    }
  }
  attr {
    key: "value"
    value {
      tensor {
        dtype: DT_FLOAT
        tensor_shape {
          dim {
            size: 64
          }
        }
        float_val: 1.0
      }
    }
  }
}
node {
  name: "MobilenetV1/Conv2d_1_pointwise/BatchNorm/moving_variance"
  op: "VariableV2"
  attr {
    key: "_class"
    value {
      list {
        s: "loc:@MobilenetV1/Conv2d_1_pointwise/BatchNorm/moving_variance"
      }
    }
  }
  attr {
    key: "_output_shapes"
    value {
      list {
        shape {
          dim {
            size: 64
          }
        }
      }
    }
  }
  attr {
    key: "container"
    value {
      s: ""
    }
  }
  attr {
    key: "dtype"
    value {
      type: DT_FLOAT
    }
  }
  attr {
    key: "shape"
    value {
      shape {
        dim {
          size: 64
        }
      }
    }
  }
  attr {
    key: "shared_name"
    value {
      s: ""
    }
  }
}
node {
  name: "MobilenetV1/Conv2d_1_pointwise/BatchNorm/moving_variance/Assign"
  op: "Assign"
  input: "MobilenetV1/Conv2d_1_pointwise/BatchNorm/moving_variance"
  input: "MobilenetV1/Conv2d_1_pointwise/BatchNorm/moving_variance/Initializer/ones"
  attr {
    key: "T"
    value {
      type: DT_FLOAT
    }
  }
  attr {
    key: "_class"
    value {
      list {
        s: "loc:@MobilenetV1/Conv2d_1_pointwise/BatchNorm/moving_variance"
      }
    }
  }
  attr {
    key: "_output_shapes"
    value {
      list {
        shape {
          dim {
            size: 64
          }
        }
      }
    }
  }
  attr {
    key: "use_locking"
    value {
      b: true
    }
  }
  attr {
    key: "validate_shape"
    value {
      b: true
    }
  }
}
node {
  name: "MobilenetV1/Conv2d_1_pointwise/BatchNorm/moving_variance/read"
  op: "Identity"
  input: "MobilenetV1/Conv2d_1_pointwise/BatchNorm/moving_variance"
  attr {
    key: "T"
    value {
      type: DT_FLOAT
    }
  }
  attr {
    key: "_class"
    value {
      list {
        s: "loc:@MobilenetV1/Conv2d_1_pointwise/BatchNorm/moving_variance"
      }
    }
  }
  attr {
    key: "_output_shapes"
    value {
      list {
        shape {
          dim {
            size: 64
          }
        }
      }
    }
  }
}
node {
  name: "MobilenetV1/MobilenetV1/Conv2d_1_pointwise/BatchNorm/Const"
  op: "Const"
  attr {
    key: "_output_shapes"
    value {
      list {
        shape {
          dim {
          }
        }
      }
    }
  }
  attr {
    key: "dtype"
    value {
      type: DT_FLOAT
    }
  }
  attr {
    key: "value"
    value {
      tensor {
        dtype: DT_FLOAT
        tensor_shape {
          dim {
          }
        }
      }
    }
  }
}
node {
  name: "MobilenetV1/MobilenetV1/Conv2d_1_pointwise/BatchNorm/Const_1"
  op: "Const"
  attr {
    key: "_output_shapes"
    value {
      list {
        shape {
          dim {
          }
        }
      }
    }
  }
  attr {
    key: "dtype"
    value {
      type: DT_FLOAT
    }
  }
  attr {
    key: "value"
    value {
      tensor {
        dtype: DT_FLOAT
        tensor_shape {
          dim {
          }
        }
      }
    }
  }
}
node {
  name: "MobilenetV1/MobilenetV1/Conv2d_1_pointwise/BatchNorm/FusedBatchNorm"
  op: "FusedBatchNorm"
  input: "MobilenetV1/MobilenetV1/Conv2d_1_pointwise/Conv2D"
  input: "MobilenetV1/Conv2d_1_pointwise/BatchNorm/gamma/read"
  input: "MobilenetV1/Conv2d_1_pointwise/BatchNorm/beta/read"
  input: "MobilenetV1/MobilenetV1/Conv2d_1_pointwise/BatchNorm/Const"
  input: "MobilenetV1/MobilenetV1/Conv2d_1_pointwise/BatchNorm/Const_1"
  attr {
    key: "T"
    value {
      type: DT_FLOAT
    }
  }
  attr {
    key: "_output_shapes"
    value {
      list {
        shape {
          dim {
            size: 16
          }
          dim {
            size: 112
          }
          dim {
            size: 112
          }
          dim {
            size: 64
          }
        }
        shape {
          dim {
            size: 64
          }
        }
        shape {
          dim {
            size: 64
          }
        }
        shape {
          dim {
            size: 64
          }
        }
        shape {
          dim {
            size: 64
          }
        }
      }
    }
  }
  attr {
    key: "data_format"
    value {
      s: "NHWC"
    }
  }
  attr {
    key: "epsilon"
    value {
      f: 0.0010000000474974513
    }
  }
  attr {
    key: "is_training"
    value {
      b: true
    }
  }
}
node {
  name: "MobilenetV1/MobilenetV1/Conv2d_1_pointwise/BatchNorm/Const_2"
  op: "Const"
  attr {
    key: "_output_shapes"
    value {
      list {
        shape {
        }
      }
    }
  }
  attr {
    key: "dtype"
    value {
      type: DT_FLOAT
    }
  }
  attr {
    key: "value"
    value {
      tensor {
        dtype: DT_FLOAT
        tensor_shape {
        }
        float_val: 0.9997000098228455
      }
    }
  }
}
node {
  name: "MobilenetV1/MobilenetV1/Conv2d_1_pointwise/BatchNorm/AssignMovingAvg/sub/x"
  op: "Const"
  attr {
    key: "_output_shapes"
    value {
      list {
        shape {
        }
      }
    }
  }
  attr {
    key: "dtype"
    value {
      type: DT_FLOAT
    }
  }
  attr {
    key: "value"
    value {
      tensor {
        dtype: DT_FLOAT
        tensor_shape {
        }
        float_val: 1.0
      }
    }
  }
}
node {
  name: "MobilenetV1/MobilenetV1/Conv2d_1_pointwise/BatchNorm/AssignMovingAvg/sub"
  op: "Sub"
  input: "MobilenetV1/MobilenetV1/Conv2d_1_pointwise/BatchNorm/AssignMovingAvg/sub/x"
  input: "MobilenetV1/MobilenetV1/Conv2d_1_pointwise/BatchNorm/Const_2"
  attr {
    key: "T"
    value {
      type: DT_FLOAT
    }
  }
  attr {
    key: "_output_shapes"
    value {
      list {
        shape {
        }
      }
    }
  }
}
node {
  name: "MobilenetV1/MobilenetV1/Conv2d_1_pointwise/BatchNorm/AssignMovingAvg/sub_1"
  op: "Sub"
  input: "MobilenetV1/Conv2d_1_pointwise/BatchNorm/moving_mean/read"
  input: "MobilenetV1/MobilenetV1/Conv2d_1_pointwise/BatchNorm/FusedBatchNorm:1"
  attr {
    key: "T"
    value {
      type: DT_FLOAT
    }
  }
  attr {
    key: "_output_shapes"
    value {
      list {
        shape {
          dim {
            size: 64
          }
        }
      }
    }
  }
}
node {
  name: "MobilenetV1/MobilenetV1/Conv2d_1_pointwise/BatchNorm/AssignMovingAvg/mul"
  op: "Mul"
  input: "MobilenetV1/MobilenetV1/Conv2d_1_pointwise/BatchNorm/AssignMovingAvg/sub_1"
  input: "MobilenetV1/MobilenetV1/Conv2d_1_pointwise/BatchNorm/AssignMovingAvg/sub"
  attr {
    key: "T"
    value {
      type: DT_FLOAT
    }
  }
  attr {
    key: "_output_shapes"
    value {
      list {
        shape {
          dim {
            size: 64
          }
        }
      }
    }
  }
}
node {
  name: "MobilenetV1/MobilenetV1/Conv2d_1_pointwise/BatchNorm/AssignMovingAvg"
  op: "AssignSub"
  input: "MobilenetV1/Conv2d_1_pointwise/BatchNorm/moving_mean"
  input: "MobilenetV1/MobilenetV1/Conv2d_1_pointwise/BatchNorm/AssignMovingAvg/mul"
  attr {
    key: "T"
    value {
      type: DT_FLOAT
    }
  }
  attr {
    key: "_class"
    value {
      list {
        s: "loc:@MobilenetV1/Conv2d_1_pointwise/BatchNorm/moving_mean"
      }
    }
  }
  attr {
    key: "_output_shapes"
    value {
      list {
        shape {
          dim {
            size: 64
          }
        }
      }
    }
  }
  attr {
    key: "use_locking"
    value {
      b: false
    }
  }
}
node {
  name: "MobilenetV1/MobilenetV1/Conv2d_1_pointwise/BatchNorm/AssignMovingAvg_1/sub/x"
  op: "Const"
  attr {
    key: "_output_shapes"
    value {
      list {
        shape {
        }
      }
    }
  }
  attr {
    key: "dtype"
    value {
      type: DT_FLOAT
    }
  }
  attr {
    key: "value"
    value {
      tensor {
        dtype: DT_FLOAT
        tensor_shape {
        }
        float_val: 1.0
      }
    }
  }
}
node {
  name: "MobilenetV1/MobilenetV1/Conv2d_1_pointwise/BatchNorm/AssignMovingAvg_1/sub"
  op: "Sub"
  input: "MobilenetV1/MobilenetV1/Conv2d_1_pointwise/BatchNorm/AssignMovingAvg_1/sub/x"
  input: "MobilenetV1/MobilenetV1/Conv2d_1_pointwise/BatchNorm/Const_2"
  attr {
    key: "T"
    value {
      type: DT_FLOAT
    }
  }
  attr {
    key: "_output_shapes"
    value {
      list {
        shape {
        }
      }
    }
  }
}
node {
  name: "MobilenetV1/MobilenetV1/Conv2d_1_pointwise/BatchNorm/AssignMovingAvg_1/sub_1"
  op: "Sub"
  input: "MobilenetV1/Conv2d_1_pointwise/BatchNorm/moving_variance/read"
  input: "MobilenetV1/MobilenetV1/Conv2d_1_pointwise/BatchNorm/FusedBatchNorm:2"
  attr {
    key: "T"
    value {
      type: DT_FLOAT
    }
  }
  attr {
    key: "_output_shapes"
    value {
      list {
        shape {
          dim {
            size: 64
          }
        }
      }
    }
  }
}
node {
  name: "MobilenetV1/MobilenetV1/Conv2d_1_pointwise/BatchNorm/AssignMovingAvg_1/mul"
  op: "Mul"
  input: "MobilenetV1/MobilenetV1/Conv2d_1_pointwise/BatchNorm/AssignMovingAvg_1/sub_1"
  input: "MobilenetV1/MobilenetV1/Conv2d_1_pointwise/BatchNorm/AssignMovingAvg_1/sub"
  attr {
    key: "T"
    value {
      type: DT_FLOAT
    }
  }
  attr {
    key: "_output_shapes"
    value {
      list {
        shape {
          dim {
            size: 64
          }
        }
      }
    }
  }
}
node {
  name: "MobilenetV1/MobilenetV1/Conv2d_1_pointwise/BatchNorm/AssignMovingAvg_1"
  op: "AssignSub"
  input: "MobilenetV1/Conv2d_1_pointwise/BatchNorm/moving_variance"
  input: "MobilenetV1/MobilenetV1/Conv2d_1_pointwise/BatchNorm/AssignMovingAvg_1/mul"
  attr {
    key: "T"
    value {
      type: DT_FLOAT
    }
  }
  attr {
    key: "_class"
    value {
      list {
        s: "loc:@MobilenetV1/Conv2d_1_pointwise/BatchNorm/moving_variance"
      }
    }
  }
  attr {
    key: "_output_shapes"
    value {
      list {
        shape {
          dim {
            size: 64
          }
        }
      }
    }
  }
  attr {
    key: "use_locking"
    value {
      b: false
    }
  }
}
node {
  name: "MobilenetV1/MobilenetV1/Conv2d_1_pointwise/Relu6"
  op: "Relu6"
  input: "MobilenetV1/MobilenetV1/Conv2d_1_pointwise/BatchNorm/FusedBatchNorm"
  attr {
    key: "T"
    value {
      type: DT_FLOAT
    }
  }
  attr {
    key: "_output_shapes"
    value {
      list {
        shape {
          dim {
            size: 16
          }
          dim {
            size: 112
          }
          dim {
            size: 112
          }
          dim {
            size: 64
          }
        }
      }
    }
  }
}
node {
  name: "MobilenetV1/Conv2d_2_depthwise/depthwise_weights/Initializer/truncated_normal/shape"
  op: "Const"
  attr {
    key: "_class"
    value {
      list {
        s: "loc:@MobilenetV1/Conv2d_2_depthwise/depthwise_weights"
      }
    }
  }
  attr {
    key: "_output_shapes"
    value {
      list {
        shape {
          dim {
            size: 4
          }
        }
      }
    }
  }
  attr {
    key: "dtype"
    value {
      type: DT_INT32
    }
  }
  attr {
    key: "value"
    value {
      tensor {
        dtype: DT_INT32
        tensor_shape {
          dim {
            size: 4
          }
        }
        tensor_content: "\003\000\000\000\003\000\000\000@\000\000\000\001\000\000\000"
      }
    }
  }
}
node {
  name: "MobilenetV1/Conv2d_2_depthwise/depthwise_weights/Initializer/truncated_normal/mean"
  op: "Const"
  attr {
    key: "_class"
    value {
      list {
        s: "loc:@MobilenetV1/Conv2d_2_depthwise/depthwise_weights"
      }
    }
  }
  attr {
    key: "_output_shapes"
    value {
      list {
        shape {
        }
      }
    }
  }
  attr {
    key: "dtype"
    value {
      type: DT_FLOAT
    }
  }
  attr {
    key: "value"
    value {
      tensor {
        dtype: DT_FLOAT
        tensor_shape {
        }
        float_val: 0.0
      }
    }
  }
}
node {
  name: "MobilenetV1/Conv2d_2_depthwise/depthwise_weights/Initializer/truncated_normal/stddev"
  op: "Const"
  attr {
    key: "_class"
    value {
      list {
        s: "loc:@MobilenetV1/Conv2d_2_depthwise/depthwise_weights"
      }
    }
  }
  attr {
    key: "_output_shapes"
    value {
      list {
        shape {
        }
      }
    }
  }
  attr {
    key: "dtype"
    value {
      type: DT_FLOAT
    }
  }
  attr {
    key: "value"
    value {
      tensor {
        dtype: DT_FLOAT
        tensor_shape {
        }
        float_val: 0.09000000357627869
      }
    }
  }
}
node {
  name: "MobilenetV1/Conv2d_2_depthwise/depthwise_weights/Initializer/truncated_normal/TruncatedNormal"
  op: "TruncatedNormal"
  input: "MobilenetV1/Conv2d_2_depthwise/depthwise_weights/Initializer/truncated_normal/shape"
  attr {
    key: "T"
    value {
      type: DT_INT32
    }
  }
  attr {
    key: "_class"
    value {
      list {
        s: "loc:@MobilenetV1/Conv2d_2_depthwise/depthwise_weights"
      }
    }
  }
  attr {
    key: "_output_shapes"
    value {
      list {
        shape {
          dim {
            size: 3
          }
          dim {
            size: 3
          }
          dim {
            size: 64
          }
          dim {
            size: 1
          }
        }
      }
    }
  }
  attr {
    key: "dtype"
    value {
      type: DT_FLOAT
    }
  }
  attr {
    key: "seed"
    value {
      i: 0
    }
  }
  attr {
    key: "seed2"
    value {
      i: 0
    }
  }
}
node {
  name: "MobilenetV1/Conv2d_2_depthwise/depthwise_weights/Initializer/truncated_normal/mul"
  op: "Mul"
  input: "MobilenetV1/Conv2d_2_depthwise/depthwise_weights/Initializer/truncated_normal/TruncatedNormal"
  input: "MobilenetV1/Conv2d_2_depthwise/depthwise_weights/Initializer/truncated_normal/stddev"
  attr {
    key: "T"
    value {
      type: DT_FLOAT
    }
  }
  attr {
    key: "_class"
    value {
      list {
        s: "loc:@MobilenetV1/Conv2d_2_depthwise/depthwise_weights"
      }
    }
  }
  attr {
    key: "_output_shapes"
    value {
      list {
        shape {
          dim {
            size: 3
          }
          dim {
            size: 3
          }
          dim {
            size: 64
          }
          dim {
            size: 1
          }
        }
      }
    }
  }
}
node {
  name: "MobilenetV1/Conv2d_2_depthwise/depthwise_weights/Initializer/truncated_normal"
  op: "Add"
  input: "MobilenetV1/Conv2d_2_depthwise/depthwise_weights/Initializer/truncated_normal/mul"
  input: "MobilenetV1/Conv2d_2_depthwise/depthwise_weights/Initializer/truncated_normal/mean"
  attr {
    key: "T"
    value {
      type: DT_FLOAT
    }
  }
  attr {
    key: "_class"
    value {
      list {
        s: "loc:@MobilenetV1/Conv2d_2_depthwise/depthwise_weights"
      }
    }
  }
  attr {
    key: "_output_shapes"
    value {
      list {
        shape {
          dim {
            size: 3
          }
          dim {
            size: 3
          }
          dim {
            size: 64
          }
          dim {
            size: 1
          }
        }
      }
    }
  }
}
node {
  name: "MobilenetV1/Conv2d_2_depthwise/depthwise_weights"
  op: "VariableV2"
  attr {
    key: "_class"
    value {
      list {
        s: "loc:@MobilenetV1/Conv2d_2_depthwise/depthwise_weights"
      }
    }
  }
  attr {
    key: "_output_shapes"
    value {
      list {
        shape {
          dim {
            size: 3
          }
          dim {
            size: 3
          }
          dim {
            size: 64
          }
          dim {
            size: 1
          }
        }
      }
    }
  }
  attr {
    key: "container"
    value {
      s: ""
    }
  }
  attr {
    key: "dtype"
    value {
      type: DT_FLOAT
    }
  }
  attr {
    key: "shape"
    value {
      shape {
        dim {
          size: 3
        }
        dim {
          size: 3
        }
        dim {
          size: 64
        }
        dim {
          size: 1
        }
      }
    }
  }
  attr {
    key: "shared_name"
    value {
      s: ""
    }
  }
}
node {
  name: "MobilenetV1/Conv2d_2_depthwise/depthwise_weights/Assign"
  op: "Assign"
  input: "MobilenetV1/Conv2d_2_depthwise/depthwise_weights"
  input: "MobilenetV1/Conv2d_2_depthwise/depthwise_weights/Initializer/truncated_normal"
  attr {
    key: "T"
    value {
      type: DT_FLOAT
    }
  }
  attr {
    key: "_class"
    value {
      list {
        s: "loc:@MobilenetV1/Conv2d_2_depthwise/depthwise_weights"
      }
    }
  }
  attr {
    key: "_output_shapes"
    value {
      list {
        shape {
          dim {
            size: 3
          }
          dim {
            size: 3
          }
          dim {
            size: 64
          }
          dim {
            size: 1
          }
        }
      }
    }
  }
  attr {
    key: "use_locking"
    value {
      b: true
    }
  }
  attr {
    key: "validate_shape"
    value {
      b: true
    }
  }
}
node {
  name: "MobilenetV1/Conv2d_2_depthwise/depthwise_weights/read"
  op: "Identity"
  input: "MobilenetV1/Conv2d_2_depthwise/depthwise_weights"
  attr {
    key: "T"
    value {
      type: DT_FLOAT
    }
  }
  attr {
    key: "_class"
    value {
      list {
        s: "loc:@MobilenetV1/Conv2d_2_depthwise/depthwise_weights"
      }
    }
  }
  attr {
    key: "_output_shapes"
    value {
      list {
        shape {
          dim {
            size: 3
          }
          dim {
            size: 3
          }
          dim {
            size: 64
          }
          dim {
            size: 1
          }
        }
      }
    }
  }
}
node {
  name: "MobilenetV1/MobilenetV1/Conv2d_2_depthwise/depthwise/Shape"
  op: "Const"
  attr {
    key: "_output_shapes"
    value {
      list {
        shape {
          dim {
            size: 4
          }
        }
      }
    }
  }
  attr {
    key: "dtype"
    value {
      type: DT_INT32
    }
  }
  attr {
    key: "value"
    value {
      tensor {
        dtype: DT_INT32
        tensor_shape {
          dim {
            size: 4
          }
        }
        tensor_content: "\003\000\000\000\003\000\000\000@\000\000\000\001\000\000\000"
      }
    }
  }
}
node {
  name: "MobilenetV1/MobilenetV1/Conv2d_2_depthwise/depthwise/dilation_rate"
  op: "Const"
  attr {
    key: "_output_shapes"
    value {
      list {
        shape {
          dim {
            size: 2
          }
        }
      }
    }
  }
  attr {
    key: "dtype"
    value {
      type: DT_INT32
    }
  }
  attr {
    key: "value"
    value {
      tensor {
        dtype: DT_INT32
        tensor_shape {
          dim {
            size: 2
          }
        }
        tensor_content: "\001\000\000\000\001\000\000\000"
      }
    }
  }
}
node {
  name: "MobilenetV1/MobilenetV1/Conv2d_2_depthwise/depthwise"
  op: "DepthwiseConv2dNative"
  input: "MobilenetV1/MobilenetV1/Conv2d_1_pointwise/Relu6"
  input: "MobilenetV1/Conv2d_2_depthwise/depthwise_weights/read"
  attr {
    key: "T"
    value {
      type: DT_FLOAT
    }
  }
  attr {
    key: "_output_shapes"
    value {
      list {
        shape {
          dim {
            size: 16
          }
          dim {
            size: 56
          }
          dim {
            size: 56
          }
          dim {
            size: 64
          }
        }
      }
    }
  }
  attr {
    key: "data_format"
    value {
      s: "NHWC"
    }
  }
  attr {
    key: "dilations"
    value {
      list {
        i: 1
        i: 1
        i: 1
        i: 1
      }
    }
  }
  attr {
    key: "padding"
    value {
      s: "SAME"
    }
  }
  attr {
    key: "strides"
    value {
      list {
        i: 1
        i: 2
        i: 2
        i: 1
      }
    }
  }
}
node {
  name: "MobilenetV1/Conv2d_2_depthwise/BatchNorm/gamma/Initializer/ones"
  op: "Const"
  attr {
    key: "_class"
    value {
      list {
        s: "loc:@MobilenetV1/Conv2d_2_depthwise/BatchNorm/gamma"
      }
    }
  }
  attr {
    key: "_output_shapes"
    value {
      list {
        shape {
          dim {
            size: 64
          }
        }
      }
    }
  }
  attr {
    key: "dtype"
    value {
      type: DT_FLOAT
    }
  }
  attr {
    key: "value"
    value {
      tensor {
        dtype: DT_FLOAT
        tensor_shape {
          dim {
            size: 64
          }
        }
        float_val: 1.0
      }
    }
  }
}
node {
  name: "MobilenetV1/Conv2d_2_depthwise/BatchNorm/gamma"
  op: "VariableV2"
  attr {
    key: "_class"
    value {
      list {
        s: "loc:@MobilenetV1/Conv2d_2_depthwise/BatchNorm/gamma"
      }
    }
  }
  attr {
    key: "_output_shapes"
    value {
      list {
        shape {
          dim {
            size: 64
          }
        }
      }
    }
  }
  attr {
    key: "container"
    value {
      s: ""
    }
  }
  attr {
    key: "dtype"
    value {
      type: DT_FLOAT
    }
  }
  attr {
    key: "shape"
    value {
      shape {
        dim {
          size: 64
        }
      }
    }
  }
  attr {
    key: "shared_name"
    value {
      s: ""
    }
  }
}
node {
  name: "MobilenetV1/Conv2d_2_depthwise/BatchNorm/gamma/Assign"
  op: "Assign"
  input: "MobilenetV1/Conv2d_2_depthwise/BatchNorm/gamma"
  input: "MobilenetV1/Conv2d_2_depthwise/BatchNorm/gamma/Initializer/ones"
  attr {
    key: "T"
    value {
      type: DT_FLOAT
    }
  }
  attr {
    key: "_class"
    value {
      list {
        s: "loc:@MobilenetV1/Conv2d_2_depthwise/BatchNorm/gamma"
      }
    }
  }
  attr {
    key: "_output_shapes"
    value {
      list {
        shape {
          dim {
            size: 64
          }
        }
      }
    }
  }
  attr {
    key: "use_locking"
    value {
      b: true
    }
  }
  attr {
    key: "validate_shape"
    value {
      b: true
    }
  }
}
node {
  name: "MobilenetV1/Conv2d_2_depthwise/BatchNorm/gamma/read"
  op: "Identity"
  input: "MobilenetV1/Conv2d_2_depthwise/BatchNorm/gamma"
  attr {
    key: "T"
    value {
      type: DT_FLOAT
    }
  }
  attr {
    key: "_class"
    value {
      list {
        s: "loc:@MobilenetV1/Conv2d_2_depthwise/BatchNorm/gamma"
      }
    }
  }
  attr {
    key: "_output_shapes"
    value {
      list {
        shape {
          dim {
            size: 64
          }
        }
      }
    }
  }
}
node {
  name: "MobilenetV1/Conv2d_2_depthwise/BatchNorm/beta/Initializer/zeros"
  op: "Const"
  attr {
    key: "_class"
    value {
      list {
        s: "loc:@MobilenetV1/Conv2d_2_depthwise/BatchNorm/beta"
      }
    }
  }
  attr {
    key: "_output_shapes"
    value {
      list {
        shape {
          dim {
            size: 64
          }
        }
      }
    }
  }
  attr {
    key: "dtype"
    value {
      type: DT_FLOAT
    }
  }
  attr {
    key: "value"
    value {
      tensor {
        dtype: DT_FLOAT
        tensor_shape {
          dim {
            size: 64
          }
        }
        float_val: 0.0
      }
    }
  }
}
node {
  name: "MobilenetV1/Conv2d_2_depthwise/BatchNorm/beta"
  op: "VariableV2"
  attr {
    key: "_class"
    value {
      list {
        s: "loc:@MobilenetV1/Conv2d_2_depthwise/BatchNorm/beta"
      }
    }
  }
  attr {
    key: "_output_shapes"
    value {
      list {
        shape {
          dim {
            size: 64
          }
        }
      }
    }
  }
  attr {
    key: "container"
    value {
      s: ""
    }
  }
  attr {
    key: "dtype"
    value {
      type: DT_FLOAT
    }
  }
  attr {
    key: "shape"
    value {
      shape {
        dim {
          size: 64
        }
      }
    }
  }
  attr {
    key: "shared_name"
    value {
      s: ""
    }
  }
}
node {
  name: "MobilenetV1/Conv2d_2_depthwise/BatchNorm/beta/Assign"
  op: "Assign"
  input: "MobilenetV1/Conv2d_2_depthwise/BatchNorm/beta"
  input: "MobilenetV1/Conv2d_2_depthwise/BatchNorm/beta/Initializer/zeros"
  attr {
    key: "T"
    value {
      type: DT_FLOAT
    }
  }
  attr {
    key: "_class"
    value {
      list {
        s: "loc:@MobilenetV1/Conv2d_2_depthwise/BatchNorm/beta"
      }
    }
  }
  attr {
    key: "_output_shapes"
    value {
      list {
        shape {
          dim {
            size: 64
          }
        }
      }
    }
  }
  attr {
    key: "use_locking"
    value {
      b: true
    }
  }
  attr {
    key: "validate_shape"
    value {
      b: true
    }
  }
}
node {
  name: "MobilenetV1/Conv2d_2_depthwise/BatchNorm/beta/read"
  op: "Identity"
  input: "MobilenetV1/Conv2d_2_depthwise/BatchNorm/beta"
  attr {
    key: "T"
    value {
      type: DT_FLOAT
    }
  }
  attr {
    key: "_class"
    value {
      list {
        s: "loc:@MobilenetV1/Conv2d_2_depthwise/BatchNorm/beta"
      }
    }
  }
  attr {
    key: "_output_shapes"
    value {
      list {
        shape {
          dim {
            size: 64
          }
        }
      }
    }
  }
}
node {
  name: "MobilenetV1/Conv2d_2_depthwise/BatchNorm/moving_mean/Initializer/zeros"
  op: "Const"
  attr {
    key: "_class"
    value {
      list {
        s: "loc:@MobilenetV1/Conv2d_2_depthwise/BatchNorm/moving_mean"
      }
    }
  }
  attr {
    key: "_output_shapes"
    value {
      list {
        shape {
          dim {
            size: 64
          }
        }
      }
    }
  }
  attr {
    key: "dtype"
    value {
      type: DT_FLOAT
    }
  }
  attr {
    key: "value"
    value {
      tensor {
        dtype: DT_FLOAT
        tensor_shape {
          dim {
            size: 64
          }
        }
        float_val: 0.0
      }
    }
  }
}
node {
  name: "MobilenetV1/Conv2d_2_depthwise/BatchNorm/moving_mean"
  op: "VariableV2"
  attr {
    key: "_class"
    value {
      list {
        s: "loc:@MobilenetV1/Conv2d_2_depthwise/BatchNorm/moving_mean"
      }
    }
  }
  attr {
    key: "_output_shapes"
    value {
      list {
        shape {
          dim {
            size: 64
          }
        }
      }
    }
  }
  attr {
    key: "container"
    value {
      s: ""
    }
  }
  attr {
    key: "dtype"
    value {
      type: DT_FLOAT
    }
  }
  attr {
    key: "shape"
    value {
      shape {
        dim {
          size: 64
        }
      }
    }
  }
  attr {
    key: "shared_name"
    value {
      s: ""
    }
  }
}
node {
  name: "MobilenetV1/Conv2d_2_depthwise/BatchNorm/moving_mean/Assign"
  op: "Assign"
  input: "MobilenetV1/Conv2d_2_depthwise/BatchNorm/moving_mean"
  input: "MobilenetV1/Conv2d_2_depthwise/BatchNorm/moving_mean/Initializer/zeros"
  attr {
    key: "T"
    value {
      type: DT_FLOAT
    }
  }
  attr {
    key: "_class"
    value {
      list {
        s: "loc:@MobilenetV1/Conv2d_2_depthwise/BatchNorm/moving_mean"
      }
    }
  }
  attr {
    key: "_output_shapes"
    value {
      list {
        shape {
          dim {
            size: 64
          }
        }
      }
    }
  }
  attr {
    key: "use_locking"
    value {
      b: true
    }
  }
  attr {
    key: "validate_shape"
    value {
      b: true
    }
  }
}
node {
  name: "MobilenetV1/Conv2d_2_depthwise/BatchNorm/moving_mean/read"
  op: "Identity"
  input: "MobilenetV1/Conv2d_2_depthwise/BatchNorm/moving_mean"
  attr {
    key: "T"
    value {
      type: DT_FLOAT
    }
  }
  attr {
    key: "_class"
    value {
      list {
        s: "loc:@MobilenetV1/Conv2d_2_depthwise/BatchNorm/moving_mean"
      }
    }
  }
  attr {
    key: "_output_shapes"
    value {
      list {
        shape {
          dim {
            size: 64
          }
        }
      }
    }
  }
}
node {
  name: "MobilenetV1/Conv2d_2_depthwise/BatchNorm/moving_variance/Initializer/ones"
  op: "Const"
  attr {
    key: "_class"
    value {
      list {
        s: "loc:@MobilenetV1/Conv2d_2_depthwise/BatchNorm/moving_variance"
      }
    }
  }
  attr {
    key: "_output_shapes"
    value {
      list {
        shape {
          dim {
            size: 64
          }
        }
      }
    }
  }
  attr {
    key: "dtype"
    value {
      type: DT_FLOAT
    }
  }
  attr {
    key: "value"
    value {
      tensor {
        dtype: DT_FLOAT
        tensor_shape {
          dim {
            size: 64
          }
        }
        float_val: 1.0
      }
    }
  }
}
node {
  name: "MobilenetV1/Conv2d_2_depthwise/BatchNorm/moving_variance"
  op: "VariableV2"
  attr {
    key: "_class"
    value {
      list {
        s: "loc:@MobilenetV1/Conv2d_2_depthwise/BatchNorm/moving_variance"
      }
    }
  }
  attr {
    key: "_output_shapes"
    value {
      list {
        shape {
          dim {
            size: 64
          }
        }
      }
    }
  }
  attr {
    key: "container"
    value {
      s: ""
    }
  }
  attr {
    key: "dtype"
    value {
      type: DT_FLOAT
    }
  }
  attr {
    key: "shape"
    value {
      shape {
        dim {
          size: 64
        }
      }
    }
  }
  attr {
    key: "shared_name"
    value {
      s: ""
    }
  }
}
node {
  name: "MobilenetV1/Conv2d_2_depthwise/BatchNorm/moving_variance/Assign"
  op: "Assign"
  input: "MobilenetV1/Conv2d_2_depthwise/BatchNorm/moving_variance"
  input: "MobilenetV1/Conv2d_2_depthwise/BatchNorm/moving_variance/Initializer/ones"
  attr {
    key: "T"
    value {
      type: DT_FLOAT
    }
  }
  attr {
    key: "_class"
    value {
      list {
        s: "loc:@MobilenetV1/Conv2d_2_depthwise/BatchNorm/moving_variance"
      }
    }
  }
  attr {
    key: "_output_shapes"
    value {
      list {
        shape {
          dim {
            size: 64
          }
        }
      }
    }
  }
  attr {
    key: "use_locking"
    value {
      b: true
    }
  }
  attr {
    key: "validate_shape"
    value {
      b: true
    }
  }
}
node {
  name: "MobilenetV1/Conv2d_2_depthwise/BatchNorm/moving_variance/read"
  op: "Identity"
  input: "MobilenetV1/Conv2d_2_depthwise/BatchNorm/moving_variance"
  attr {
    key: "T"
    value {
      type: DT_FLOAT
    }
  }
  attr {
    key: "_class"
    value {
      list {
        s: "loc:@MobilenetV1/Conv2d_2_depthwise/BatchNorm/moving_variance"
      }
    }
  }
  attr {
    key: "_output_shapes"
    value {
      list {
        shape {
          dim {
            size: 64
          }
        }
      }
    }
  }
}
node {
  name: "MobilenetV1/MobilenetV1/Conv2d_2_depthwise/BatchNorm/Const"
  op: "Const"
  attr {
    key: "_output_shapes"
    value {
      list {
        shape {
          dim {
          }
        }
      }
    }
  }
  attr {
    key: "dtype"
    value {
      type: DT_FLOAT
    }
  }
  attr {
    key: "value"
    value {
      tensor {
        dtype: DT_FLOAT
        tensor_shape {
          dim {
          }
        }
      }
    }
  }
}
node {
  name: "MobilenetV1/MobilenetV1/Conv2d_2_depthwise/BatchNorm/Const_1"
  op: "Const"
  attr {
    key: "_output_shapes"
    value {
      list {
        shape {
          dim {
          }
        }
      }
    }
  }
  attr {
    key: "dtype"
    value {
      type: DT_FLOAT
    }
  }
  attr {
    key: "value"
    value {
      tensor {
        dtype: DT_FLOAT
        tensor_shape {
          dim {
          }
        }
      }
    }
  }
}
node {
  name: "MobilenetV1/MobilenetV1/Conv2d_2_depthwise/BatchNorm/FusedBatchNorm"
  op: "FusedBatchNorm"
  input: "MobilenetV1/MobilenetV1/Conv2d_2_depthwise/depthwise"
  input: "MobilenetV1/Conv2d_2_depthwise/BatchNorm/gamma/read"
  input: "MobilenetV1/Conv2d_2_depthwise/BatchNorm/beta/read"
  input: "MobilenetV1/MobilenetV1/Conv2d_2_depthwise/BatchNorm/Const"
  input: "MobilenetV1/MobilenetV1/Conv2d_2_depthwise/BatchNorm/Const_1"
  attr {
    key: "T"
    value {
      type: DT_FLOAT
    }
  }
  attr {
    key: "_output_shapes"
    value {
      list {
        shape {
          dim {
            size: 16
          }
          dim {
            size: 56
          }
          dim {
            size: 56
          }
          dim {
            size: 64
          }
        }
        shape {
          dim {
            size: 64
          }
        }
        shape {
          dim {
            size: 64
          }
        }
        shape {
          dim {
            size: 64
          }
        }
        shape {
          dim {
            size: 64
          }
        }
      }
    }
  }
  attr {
    key: "data_format"
    value {
      s: "NHWC"
    }
  }
  attr {
    key: "epsilon"
    value {
      f: 0.0010000000474974513
    }
  }
  attr {
    key: "is_training"
    value {
      b: true
    }
  }
}
node {
  name: "MobilenetV1/MobilenetV1/Conv2d_2_depthwise/BatchNorm/Const_2"
  op: "Const"
  attr {
    key: "_output_shapes"
    value {
      list {
        shape {
        }
      }
    }
  }
  attr {
    key: "dtype"
    value {
      type: DT_FLOAT
    }
  }
  attr {
    key: "value"
    value {
      tensor {
        dtype: DT_FLOAT
        tensor_shape {
        }
        float_val: 0.9997000098228455
      }
    }
  }
}
node {
  name: "MobilenetV1/MobilenetV1/Conv2d_2_depthwise/BatchNorm/AssignMovingAvg/sub/x"
  op: "Const"
  attr {
    key: "_output_shapes"
    value {
      list {
        shape {
        }
      }
    }
  }
  attr {
    key: "dtype"
    value {
      type: DT_FLOAT
    }
  }
  attr {
    key: "value"
    value {
      tensor {
        dtype: DT_FLOAT
        tensor_shape {
        }
        float_val: 1.0
      }
    }
  }
}
node {
  name: "MobilenetV1/MobilenetV1/Conv2d_2_depthwise/BatchNorm/AssignMovingAvg/sub"
  op: "Sub"
  input: "MobilenetV1/MobilenetV1/Conv2d_2_depthwise/BatchNorm/AssignMovingAvg/sub/x"
  input: "MobilenetV1/MobilenetV1/Conv2d_2_depthwise/BatchNorm/Const_2"
  attr {
    key: "T"
    value {
      type: DT_FLOAT
…
  input: "init_ops/report_uninitialized_variables/IsVariableInitialized_205"
  input: "init_ops/report_uninitialized_variables/IsVariableInitialized_206"
  input: "init_ops/report_uninitialized_variables/IsVariableInitialized_207"
  input: "init_ops/report_uninitialized_variables/IsVariableInitialized_208"
  input: "init_ops/report_uninitialized_variables/IsVariableInitialized_209"
  input: "init_ops/report_uninitialized_variables/IsVariableInitialized_210"
  input: "init_ops/report_uninitialized_variables/IsVariableInitialized_211"
  input: "init_ops/report_uninitialized_variables/IsVariableInitialized_212"
  input: "init_ops/report_uninitialized_variables/IsVariableInitialized_213"
  input: "init_ops/report_uninitialized_variables/IsVariableInitialized_214"
  input: "init_ops/report_uninitialized_variables/IsVariableInitialized_215"
  input: "init_ops/report_uninitialized_variables/IsVariableInitialized_216"
  input: "init_ops/report_uninitialized_variables/IsVariableInitialized_217"
  input: "init_ops/report_uninitialized_variables/IsVariableInitialized_218"
  input: "init_ops/report_uninitialized_variables/IsVariableInitialized_219"
  input: "init_ops/report_uninitialized_variables/IsVariableInitialized_220"
  input: "init_ops/report_uninitialized_variables/IsVariableInitialized_221"
  input: "init_ops/report_uninitialized_variables/IsVariableInitialized_222"
  input: "init_ops/report_uninitialized_variables/IsVariableInitialized_223"
  input: "init_ops/report_uninitialized_variables/IsVariableInitialized_224"
  input: "init_ops/report_uninitialized_variables/IsVariableInitialized_225"
  input: "init_ops/report_uninitialized_variables/IsVariableInitialized_226"
  input: "init_ops/report_uninitialized_variables/IsVariableInitialized_227"
  input: "init_ops/report_uninitialized_variables/IsVariableInitialized_228"
  input: "init_ops/report_uninitialized_variables/IsVariableInitialized_229"
  input: "init_ops/report_uninitialized_variables/IsVariableInitialized_230"
  input: "init_ops/report_uninitialized_variables/IsVariableInitialized_231"
  input: "init_ops/report_uninitialized_variables/IsVariableInitialized_232"
  input: "init_ops/report_uninitialized_variables/IsVariableInitialized_233"
  input: "init_ops/report_uninitialized_variables/IsVariableInitialized_234"
  input: "init_ops/report_uninitialized_variables/IsVariableInitialized_235"
  input: "init_ops/report_uninitialized_variables/IsVariableInitialized_236"
  input: "init_ops/report_uninitialized_variables/IsVariableInitialized_237"
  input: "init_ops/report_uninitialized_variables/IsVariableInitialized_238"
  input: "init_ops/report_uninitialized_variables/IsVariableInitialized_239"
  input: "init_ops/report_uninitialized_variables/IsVariableInitialized_240"
  input: "init_ops/report_uninitialized_variables/IsVariableInitialized_241"
  input: "init_ops/report_uninitialized_variables/IsVariableInitialized_242"
  input: "init_ops/report_uninitialized_variables/IsVariableInitialized_243"
  input: "init_ops/report_uninitialized_variables/IsVariableInitialized_244"
  input: "init_ops/report_uninitialized_variables/IsVariableInitialized_245"
  input: "init_ops/report_uninitialized_variables/IsVariableInitialized_246"
  input: "init_ops/report_uninitialized_variables/IsVariableInitialized_247"
  input: "init_ops/report_uninitialized_variables/IsVariableInitialized_248"
  input: "init_ops/report_uninitialized_variables/IsVariableInitialized_249"
  input: "init_ops/report_uninitialized_variables/IsVariableInitialized_250"
  input: "init_ops/report_uninitialized_variables/IsVariableInitialized_251"
  input: "init_ops/report_uninitialized_variables/IsVariableInitialized_252"
  input: "init_ops/report_uninitialized_variables/IsVariableInitialized_253"
  input: "init_ops/report_uninitialized_variables/IsVariableInitialized_254"
  input: "init_ops/report_uninitialized_variables/IsVariableInitialized_255"
  input: "init_ops/report_uninitialized_variables/IsVariableInitialized_256"
  input: "init_ops/report_uninitialized_variables/IsVariableInitialized_257"
  input: "init_ops/report_uninitialized_variables/IsVariableInitialized_258"
  input: "init_ops/report_uninitialized_variables/IsVariableInitialized_259"
  input: "init_ops/report_uninitialized_variables/IsVariableInitialized_260"
  input: "init_ops/report_uninitialized_variables/IsVariableInitialized_261"
  input: "init_ops/report_uninitialized_variables/IsVariableInitialized_262"
  input: "init_ops/report_uninitialized_variables/IsVariableInitialized_263"
  input: "init_ops/report_uninitialized_variables/IsVariableInitialized_264"
  input: "init_ops/report_uninitialized_variables/IsVariableInitialized_265"
  input: "init_ops/report_uninitialized_variables/IsVariableInitialized_266"
  input: "init_ops/report_uninitialized_variables/IsVariableInitialized_267"
  input: "init_ops/report_uninitialized_variables/IsVariableInitialized_268"
  input: "init_ops/report_uninitialized_variables/IsVariableInitialized_269"
  input: "init_ops/report_uninitialized_variables/IsVariableInitialized_270"
  input: "init_ops/report_uninitialized_variables/IsVariableInitialized_271"
  input: "init_ops/report_uninitialized_variables/IsVariableInitialized_272"
  input: "init_ops/report_uninitialized_variables/IsVariableInitialized_273"
  input: "init_ops/report_uninitialized_variables/IsVariableInitialized_274"
  input: "init_ops/report_uninitialized_variables/IsVariableInitialized_275"
  input: "init_ops/report_uninitialized_variables/IsVariableInitialized_276"
  input: "init_ops/report_uninitialized_variables/IsVariableInitialized_277"
  input: "init_ops/report_uninitialized_variables/IsVariableInitialized_278"
  input: "init_ops/report_uninitialized_variables/IsVariableInitialized_279"
  input: "init_ops/report_uninitialized_variables/IsVariableInitialized_280"
  input: "init_ops/report_uninitialized_variables/IsVariableInitialized_281"
  input: "init_ops/report_uninitialized_variables/IsVariableInitialized_282"
  input: "init_ops/report_uninitialized_variables/IsVariableInitialized_283"
  input: "init_ops/report_uninitialized_variables/IsVariableInitialized_284"
  input: "init_ops/report_uninitialized_variables/IsVariableInitialized_285"
  input: "init_ops/report_uninitialized_variables/IsVariableInitialized_286"
  input: "init_ops/report_uninitialized_variables/IsVariableInitialized_287"
  input: "init_ops/report_uninitialized_variables/IsVariableInitialized_288"
  input: "init_ops/report_uninitialized_variables/IsVariableInitialized_289"
  input: "init_ops/report_uninitialized_variables/IsVariableInitialized_290"
  input: "init_ops/report_uninitialized_variables/IsVariableInitialized_291"
  input: "init_ops/report_uninitialized_variables/IsVariableInitialized_292"
  input: "init_ops/report_uninitialized_variables/IsVariableInitialized_293"
  input: "init_ops/report_uninitialized_variables/IsVariableInitialized_294"
  input: "init_ops/report_uninitialized_variables/IsVariableInitialized_295"
  input: "init_ops/report_uninitialized_variables/IsVariableInitialized_296"
  input: "init_ops/report_uninitialized_variables/IsVariableInitialized_297"
  input: "init_ops/report_uninitialized_variables/IsVariableInitialized_298"
  input: "init_ops/report_uninitialized_variables/IsVariableInitialized_299"
  input: "init_ops/report_uninitialized_variables/IsVariableInitialized_300"
  input: "init_ops/report_uninitialized_variables/IsVariableInitialized_301"
  input: "init_ops/report_uninitialized_variables/IsVariableInitialized_302"
  input: "init_ops/report_uninitialized_variables/IsVariableInitialized_303"
  input: "init_ops/report_uninitialized_variables/IsVariableInitialized_304"
  input: "init_ops/report_uninitialized_variables/IsVariableInitialized_305"
  device: "/device:CPU:0"
  attr {
    key: "N"
    value {
      i: 306
    }
  }
  attr {
    key: "T"
    value {
      type: DT_BOOL
    }
  }
  attr {
    key: "_output_shapes"
    value {
      list {
        shape {
          dim {
            size: 306
          }
        }
      }
    }
  }
  attr {
    key: "axis"
    value {
      i: 0
    }
  }
}
node {
  name: "init_ops/report_uninitialized_variables/LogicalNot"
  op: "LogicalNot"
  input: "init_ops/report_uninitialized_variables/stack"
  device: "/device:CPU:0"
  attr {
    key: "_output_shapes"
    value {
      list {
        shape {
          dim {
            size: 306
          }
        }
      }
    }
  }
}
node {
  name: "init_ops/report_uninitialized_variables/Const"
  op: "Const"
  device: "/device:CPU:0"
  attr {
    key: "_output_shapes"
    value {
      list {
        shape {
          dim {
            size: 306
          }
        }
      }
    }
  }
  attr {
    key: "dtype"
    value {
      type: DT_STRING
    }
  }
  attr {
    key: "value"
    value {
      tensor {
        dtype: DT_STRING
        tensor_shape {
          dim {
            size: 306
          }
        }
        string_val: "MobilenetV1/Conv2d_0/weights"
        string_val: "MobilenetV1/Conv2d_0/BatchNorm/gamma"
        string_val: "MobilenetV1/Conv2d_0/BatchNorm/beta"
        string_val: "MobilenetV1/Conv2d_0/BatchNorm/moving_mean"
        string_val: "MobilenetV1/Conv2d_0/BatchNorm/moving_variance"
        string_val: "MobilenetV1/Conv2d_1_depthwise/depthwise_weights"
        string_val: "MobilenetV1/Conv2d_1_depthwise/BatchNorm/gamma"
        string_val: "MobilenetV1/Conv2d_1_depthwise/BatchNorm/beta"
        string_val: "MobilenetV1/Conv2d_1_depthwise/BatchNorm/moving_mean"
        string_val: "MobilenetV1/Conv2d_1_depthwise/BatchNorm/moving_variance"
        string_val: "MobilenetV1/Conv2d_1_pointwise/weights"
        string_val: "MobilenetV1/Conv2d_1_pointwise/BatchNorm/gamma"
        string_val: "MobilenetV1/Conv2d_1_pointwise/BatchNorm/beta"
        string_val: "MobilenetV1/Conv2d_1_pointwise/BatchNorm/moving_mean"
        string_val: "MobilenetV1/Conv2d_1_pointwise/BatchNorm/moving_variance"
        string_val: "MobilenetV1/Conv2d_2_depthwise/depthwise_weights"
        string_val: "MobilenetV1/Conv2d_2_depthwise/BatchNorm/gamma"
        string_val: "MobilenetV1/Conv2d_2_depthwise/BatchNorm/beta"
        string_val: "MobilenetV1/Conv2d_2_depthwise/BatchNorm/moving_mean"
        string_val: "MobilenetV1/Conv2d_2_depthwise/BatchNorm/moving_variance"
        string_val: "MobilenetV1/Conv2d_2_pointwise/weights"
        string_val: "MobilenetV1/Conv2d_2_pointwise/BatchNorm/gamma"
        string_val: "MobilenetV1/Conv2d_2_pointwise/BatchNorm/beta"
        string_val: "MobilenetV1/Conv2d_2_pointwise/BatchNorm/moving_mean"
        string_val: "MobilenetV1/Conv2d_2_pointwise/BatchNorm/moving_variance"
        string_val: "MobilenetV1/Conv2d_3_depthwise/depthwise_weights"
        string_val: "MobilenetV1/Conv2d_3_depthwise/BatchNorm/gamma"
        string_val: "MobilenetV1/Conv2d_3_depthwise/BatchNorm/beta"
        string_val: "MobilenetV1/Conv2d_3_depthwise/BatchNorm/moving_mean"
        string_val: "MobilenetV1/Conv2d_3_depthwise/BatchNorm/moving_variance"
        string_val: "MobilenetV1/Conv2d_3_pointwise/weights"
        string_val: "MobilenetV1/Conv2d_3_pointwise/BatchNorm/gamma"
        string_val: "MobilenetV1/Conv2d_3_pointwise/BatchNorm/beta"
        string_val: "MobilenetV1/Conv2d_3_pointwise/BatchNorm/moving_mean"
        string_val: "MobilenetV1/Conv2d_3_pointwise/BatchNorm/moving_variance"
        string_val: "MobilenetV1/Conv2d_4_depthwise/depthwise_weights"
        string_val: "MobilenetV1/Conv2d_4_depthwise/BatchNorm/gamma"
        string_val: "MobilenetV1/Conv2d_4_depthwise/BatchNorm/beta"
        string_val: "MobilenetV1/Conv2d_4_depthwise/BatchNorm/moving_mean"
        string_val: "MobilenetV1/Conv2d_4_depthwise/BatchNorm/moving_variance"
        string_val: "MobilenetV1/Conv2d_4_pointwise/weights"
        string_val: "MobilenetV1/Conv2d_4_pointwise/BatchNorm/gamma"
        string_val: "MobilenetV1/Conv2d_4_pointwise/BatchNorm/beta"
        string_val: "MobilenetV1/Conv2d_4_pointwise/BatchNorm/moving_mean"
        string_val: "MobilenetV1/Conv2d_4_pointwise/BatchNorm/moving_variance"
        string_val: "MobilenetV1/Conv2d_5_depthwise/depthwise_weights"
        string_val: "MobilenetV1/Conv2d_5_depthwise/BatchNorm/gamma"
        string_val: "MobilenetV1/Conv2d_5_depthwise/BatchNorm/beta"
        string_val: "MobilenetV1/Conv2d_5_depthwise/BatchNorm/moving_mean"
        string_val: "MobilenetV1/Conv2d_5_depthwise/BatchNorm/moving_variance"
        string_val: "MobilenetV1/Conv2d_5_pointwise/weights"
        string_val: "MobilenetV1/Conv2d_5_pointwise/BatchNorm/gamma"
        string_val: "MobilenetV1/Conv2d_5_pointwise/BatchNorm/beta"
        string_val: "MobilenetV1/Conv2d_5_pointwise/BatchNorm/moving_mean"
        string_val: "MobilenetV1/Conv2d_5_pointwise/BatchNorm/moving_variance"
        string_val: "MobilenetV1/Conv2d_6_depthwise/depthwise_weights"
        string_val: "MobilenetV1/Conv2d_6_depthwise/BatchNorm/gamma"
        string_val: "MobilenetV1/Conv2d_6_depthwise/BatchNorm/beta"
        string_val: "MobilenetV1/Conv2d_6_depthwise/BatchNorm/moving_mean"
        string_val: "MobilenetV1/Conv2d_6_depthwise/BatchNorm/moving_variance"
        string_val: "MobilenetV1/Conv2d_6_pointwise/weights"
        string_val: "MobilenetV1/Conv2d_6_pointwise/BatchNorm/gamma"
        string_val: "MobilenetV1/Conv2d_6_pointwise/BatchNorm/beta"
        string_val: "MobilenetV1/Conv2d_6_pointwise/BatchNorm/moving_mean"
        string_val: "MobilenetV1/Conv2d_6_pointwise/BatchNorm/moving_variance"
        string_val: "MobilenetV1/Conv2d_7_depthwise/depthwise_weights"
        string_val: "MobilenetV1/Conv2d_7_depthwise/BatchNorm/gamma"
        string_val: "MobilenetV1/Conv2d_7_depthwise/BatchNorm/beta"
        string_val: "MobilenetV1/Conv2d_7_depthwise/BatchNorm/moving_mean"
        string_val: "MobilenetV1/Conv2d_7_depthwise/BatchNorm/moving_variance"
        string_val: "MobilenetV1/Conv2d_7_pointwise/weights"
        string_val: "MobilenetV1/Conv2d_7_pointwise/BatchNorm/gamma"
        string_val: "MobilenetV1/Conv2d_7_pointwise/BatchNorm/beta"
        string_val: "MobilenetV1/Conv2d_7_pointwise/BatchNorm/moving_mean"
        string_val: "MobilenetV1/Conv2d_7_pointwise/BatchNorm/moving_variance"
        string_val: "MobilenetV1/Conv2d_8_depthwise/depthwise_weights"
        string_val: "MobilenetV1/Conv2d_8_depthwise/BatchNorm/gamma"
        string_val: "MobilenetV1/Conv2d_8_depthwise/BatchNorm/beta"
        string_val: "MobilenetV1/Conv2d_8_depthwise/BatchNorm/moving_mean"
        string_val: "MobilenetV1/Conv2d_8_depthwise/BatchNorm/moving_variance"
        string_val: "MobilenetV1/Conv2d_8_pointwise/weights"
        string_val: "MobilenetV1/Conv2d_8_pointwise/BatchNorm/gamma"
        string_val: "MobilenetV1/Conv2d_8_pointwise/BatchNorm/beta"
        string_val: "MobilenetV1/Conv2d_8_pointwise/BatchNorm/moving_mean"
        string_val: "MobilenetV1/Conv2d_8_pointwise/BatchNorm/moving_variance"
        string_val: "MobilenetV1/Conv2d_9_depthwise/depthwise_weights"
        string_val: "MobilenetV1/Conv2d_9_depthwise/BatchNorm/gamma"
        string_val: "MobilenetV1/Conv2d_9_depthwise/BatchNorm/beta"
        string_val: "MobilenetV1/Conv2d_9_depthwise/BatchNorm/moving_mean"
        string_val: "MobilenetV1/Conv2d_9_depthwise/BatchNorm/moving_variance"
        string_val: "MobilenetV1/Conv2d_9_pointwise/weights"
        string_val: "MobilenetV1/Conv2d_9_pointwise/BatchNorm/gamma"
        string_val: "MobilenetV1/Conv2d_9_pointwise/BatchNorm/beta"
        string_val: "MobilenetV1/Conv2d_9_pointwise/BatchNorm/moving_mean"
        string_val: "MobilenetV1/Conv2d_9_pointwise/BatchNorm/moving_variance"
        string_val: "MobilenetV1/Conv2d_10_depthwise/depthwise_weights"
        string_val: "MobilenetV1/Conv2d_10_depthwise/BatchNorm/gamma"
        string_val: "MobilenetV1/Conv2d_10_depthwise/BatchNorm/beta"
        string_val: "MobilenetV1/Conv2d_10_depthwise/BatchNorm/moving_mean"
        string_val: "MobilenetV1/Conv2d_10_depthwise/BatchNorm/moving_variance"
        string_val: "MobilenetV1/Conv2d_10_pointwise/weights"
        string_val: "MobilenetV1/Conv2d_10_pointwise/BatchNorm/gamma"
        string_val: "MobilenetV1/Conv2d_10_pointwise/BatchNorm/beta"
        string_val: "MobilenetV1/Conv2d_10_pointwise/BatchNorm/moving_mean"
        string_val: "MobilenetV1/Conv2d_10_pointwise/BatchNorm/moving_variance"
        string_val: "MobilenetV1/Conv2d_11_depthwise/depthwise_weights"
        string_val: "MobilenetV1/Conv2d_11_depthwise/BatchNorm/gamma"
        string_val: "MobilenetV1/Conv2d_11_depthwise/BatchNorm/beta"
        string_val: "MobilenetV1/Conv2d_11_depthwise/BatchNorm/moving_mean"
        string_val: "MobilenetV1/Conv2d_11_depthwise/BatchNorm/moving_variance"
        string_val: "MobilenetV1/Conv2d_11_pointwise/weights"
        string_val: "MobilenetV1/Conv2d_11_pointwise/BatchNorm/gamma"
        string_val: "MobilenetV1/Conv2d_11_pointwise/BatchNorm/beta"
        string_val: "MobilenetV1/Conv2d_11_pointwise/BatchNorm/moving_mean"
        string_val: "MobilenetV1/Conv2d_11_pointwise/BatchNorm/moving_variance"
        string_val: "MobilenetV1/Conv2d_12_depthwise/depthwise_weights"
        string_val: "MobilenetV1/Conv2d_12_depthwise/BatchNorm/gamma"
        string_val: "MobilenetV1/Conv2d_12_depthwise/BatchNorm/beta"
        string_val: "MobilenetV1/Conv2d_12_depthwise/BatchNorm/moving_mean"
        string_val: "MobilenetV1/Conv2d_12_depthwise/BatchNorm/moving_variance"
        string_val: "MobilenetV1/Conv2d_12_pointwise/weights"
        string_val: "MobilenetV1/Conv2d_12_pointwise/BatchNorm/gamma"
        string_val: "MobilenetV1/Conv2d_12_pointwise/BatchNorm/beta"
        string_val: "MobilenetV1/Conv2d_12_pointwise/BatchNorm/moving_mean"
        string_val: "MobilenetV1/Conv2d_12_pointwise/BatchNorm/moving_variance"
        string_val: "MobilenetV1/Conv2d_13_depthwise/depthwise_weights"
        string_val: "MobilenetV1/Conv2d_13_depthwise/BatchNorm/gamma"
        string_val: "MobilenetV1/Conv2d_13_depthwise/BatchNorm/beta"
        string_val: "MobilenetV1/Conv2d_13_depthwise/BatchNorm/moving_mean"
        string_val: "MobilenetV1/Conv2d_13_depthwise/BatchNorm/moving_variance"
        string_val: "MobilenetV1/Conv2d_13_pointwise/weights"
        string_val: "MobilenetV1/Conv2d_13_pointwise/BatchNorm/gamma"
        string_val: "MobilenetV1/Conv2d_13_pointwise/BatchNorm/beta"
        string_val: "MobilenetV1/Conv2d_13_pointwise/BatchNorm/moving_mean"
        string_val: "MobilenetV1/Conv2d_13_pointwise/BatchNorm/moving_variance"
        string_val: "MobilenetV1/Logits/Conv2d_1c_1x1/weights"
        string_val: "MobilenetV1/Logits/Conv2d_1c_1x1/biases"
        string_val: "global_step"
        string_val: "beta1_power"
        string_val: "beta2_power"
        string_val: "MobilenetV1/Conv2d_0/weights/Adam"
        string_val: "MobilenetV1/Conv2d_0/weights/Adam_1"
        string_val: "MobilenetV1/Conv2d_0/BatchNorm/gamma/Adam"
        string_val: "MobilenetV1/Conv2d_0/BatchNorm/gamma/Adam_1"
        string_val: "MobilenetV1/Conv2d_0/BatchNorm/beta/Adam"
        string_val: "MobilenetV1/Conv2d_0/BatchNorm/beta/Adam_1"
        string_val: "MobilenetV1/Conv2d_1_depthwise/depthwise_weights/Adam"
        string_val: "MobilenetV1/Conv2d_1_depthwise/depthwise_weights/Adam_1"
        string_val: "MobilenetV1/Conv2d_1_depthwise/BatchNorm/gamma/Adam"
        string_val: "MobilenetV1/Conv2d_1_depthwise/BatchNorm/gamma/Adam_1"
        string_val: "MobilenetV1/Conv2d_1_depthwise/BatchNorm/beta/Adam"
        string_val: "MobilenetV1/Conv2d_1_depthwise/BatchNorm/beta/Adam_1"
        string_val: "MobilenetV1/Conv2d_1_pointwise/weights/Adam"
        string_val: "MobilenetV1/Conv2d_1_pointwise/weights/Adam_1"
        string_val: "MobilenetV1/Conv2d_1_pointwise/BatchNorm/gamma/Adam"
        string_val: "MobilenetV1/Conv2d_1_pointwise/BatchNorm/gamma/Adam_1"
        string_val: "MobilenetV1/Conv2d_1_pointwise/BatchNorm/beta/Adam"
        string_val: "MobilenetV1/Conv2d_1_pointwise/BatchNorm/beta/Adam_1"
        string_val: "MobilenetV1/Conv2d_2_depthwise/depthwise_weights/Adam"
        string_val: "MobilenetV1/Conv2d_2_depthwise/depthwise_weights/Adam_1"
        string_val: "MobilenetV1/Conv2d_2_depthwise/BatchNorm/gamma/Adam"
        string_val: "MobilenetV1/Conv2d_2_depthwise/BatchNorm/gamma/Adam_1"
        string_val: "MobilenetV1/Conv2d_2_depthwise/BatchNorm/beta/Adam"
        string_val: "MobilenetV1/Conv2d_2_depthwise/BatchNorm/beta/Adam_1"
        string_val: "MobilenetV1/Conv2d_2_pointwise/weights/Adam"
        string_val: "MobilenetV1/Conv2d_2_pointwise/weights/Adam_1"
        string_val: "MobilenetV1/Conv2d_2_pointwise/BatchNorm/gamma/Adam"
        string_val: "MobilenetV1/Conv2d_2_pointwise/BatchNorm/gamma/Adam_1"
        string_val: "MobilenetV1/Conv2d_2_pointwise/BatchNorm/beta/Adam"
        string_val: "MobilenetV1/Conv2d_2_pointwise/BatchNorm/beta/Adam_1"
        string_val: "MobilenetV1/Conv2d_3_depthwise/depthwise_weights/Adam"
        string_val: "MobilenetV1/Conv2d_3_depthwise/depthwise_weights/Adam_1"
        string_val: "MobilenetV1/Conv2d_3_depthwise/BatchNorm/gamma/Adam"
        string_val: "MobilenetV1/Conv2d_3_depthwise/BatchNorm/gamma/Adam_1"
        string_val: "MobilenetV1/Conv2d_3_depthwise/BatchNorm/beta/Adam"
        string_val: "MobilenetV1/Conv2d_3_depthwise/BatchNorm/beta/Adam_1"
        string_val: "MobilenetV1/Conv2d_3_pointwise/weights/Adam"
        string_val: "MobilenetV1/Conv2d_3_pointwise/weights/Adam_1"
        string_val: "MobilenetV1/Conv2d_3_pointwise/BatchNorm/gamma/Adam"
        string_val: "MobilenetV1/Conv2d_3_pointwise/BatchNorm/gamma/Adam_1"
        string_val: "MobilenetV1/Conv2d_3_pointwise/BatchNorm/beta/Adam"
        string_val: "MobilenetV1/Conv2d_3_pointwise/BatchNorm/beta/Adam_1"
        string_val: "MobilenetV1/Conv2d_4_depthwise/depthwise_weights/Adam"
        string_val: "MobilenetV1/Conv2d_4_depthwise/depthwise_weights/Adam_1"
        string_val: "MobilenetV1/Conv2d_4_depthwise/BatchNorm/gamma/Adam"
        string_val: "MobilenetV1/Conv2d_4_depthwise/BatchNorm/gamma/Adam_1"
        string_val: "MobilenetV1/Conv2d_4_depthwise/BatchNorm/beta/Adam"
        string_val: "MobilenetV1/Conv2d_4_depthwise/BatchNorm/beta/Adam_1"
        string_val: "MobilenetV1/Conv2d_4_pointwise/weights/Adam"
        string_val: "MobilenetV1/Conv2d_4_pointwise/weights/Adam_1"
        string_val: "MobilenetV1/Conv2d_4_pointwise/BatchNorm/gamma/Adam"
        string_val: "MobilenetV1/Conv2d_4_pointwise/BatchNorm/gamma/Adam_1"
        string_val: "MobilenetV1/Conv2d_4_pointwise/BatchNorm/beta/Adam"
        string_val: "MobilenetV1/Conv2d_4_pointwise/BatchNorm/beta/Adam_1"
        string_val: "MobilenetV1/Conv2d_5_depthwise/depthwise_weights/Adam"
        string_val: "MobilenetV1/Conv2d_5_depthwise/depthwise_weights/Adam_1"
        string_val: "MobilenetV1/Conv2d_5_depthwise/BatchNorm/gamma/Adam"
        string_val: "MobilenetV1/Conv2d_5_depthwise/BatchNorm/gamma/Adam_1"
        string_val: "MobilenetV1/Conv2d_5_depthwise/BatchNorm/beta/Adam"
        string_val: "MobilenetV1/Conv2d_5_depthwise/BatchNorm/beta/Adam_1"
        string_val: "MobilenetV1/Conv2d_5_pointwise/weights/Adam"
        string_val: "MobilenetV1/Conv2d_5_pointwise/weights/Adam_1"
        string_val: "MobilenetV1/Conv2d_5_pointwise/BatchNorm/gamma/Adam"
        string_val: "MobilenetV1/Conv2d_5_pointwise/BatchNorm/gamma/Adam_1"
        string_val: "MobilenetV1/Conv2d_5_pointwise/BatchNorm/beta/Adam"
        string_val: "MobilenetV1/Conv2d_5_pointwise/BatchNorm/beta/Adam_1"
        string_val: "MobilenetV1/Conv2d_6_depthwise/depthwise_weights/Adam"
        string_val: "MobilenetV1/Conv2d_6_depthwise/depthwise_weights/Adam_1"
        string_val: "MobilenetV1/Conv2d_6_depthwise/BatchNorm/gamma/Adam"
        string_val: "MobilenetV1/Conv2d_6_depthwise/BatchNorm/gamma/Adam_1"
        string_val: "MobilenetV1/Conv2d_6_depthwise/BatchNorm/beta/Adam"
        string_val: "MobilenetV1/Conv2d_6_depthwise/BatchNorm/beta/Adam_1"
        string_val: "MobilenetV1/Conv2d_6_pointwise/weights/Adam"
        string_val: "MobilenetV1/Conv2d_6_pointwise/weights/Adam_1"
        string_val: "MobilenetV1/Conv2d_6_pointwise/BatchNorm/gamma/Adam"
        string_val: "MobilenetV1/Conv2d_6_pointwise/BatchNorm/gamma/Adam_1"
        string_val: "MobilenetV1/Conv2d_6_pointwise/BatchNorm/beta/Adam"
        string_val: "MobilenetV1/Conv2d_6_pointwise/BatchNorm/beta/Adam_1"
        string_val: "MobilenetV1/Conv2d_7_depthwise/depthwise_weights/Adam"
        string_val: "MobilenetV1/Conv2d_7_depthwise/depthwise_weights/Adam_1"
        string_val: "MobilenetV1/Conv2d_7_depthwise/BatchNorm/gamma/Adam"
        string_val: "MobilenetV1/Conv2d_7_depthwise/BatchNorm/gamma/Adam_1"
        string_val: "MobilenetV1/Conv2d_7_depthwise/BatchNorm/beta/Adam"
        string_val: "MobilenetV1/Conv2d_7_depthwise/BatchNorm/beta/Adam_1"
        string_val: "MobilenetV1/Conv2d_7_pointwise/weights/Adam"
        string_val: "MobilenetV1/Conv2d_7_pointwise/weights/Adam_1"
        string_val: "MobilenetV1/Conv2d_7_pointwise/BatchNorm/gamma/Adam"
        string_val: "MobilenetV1/Conv2d_7_pointwise/BatchNorm/gamma/Adam_1"
        string_val: "MobilenetV1/Conv2d_7_pointwise/BatchNorm/beta/Adam"
        string_val: "MobilenetV1/Conv2d_7_pointwise/BatchNorm/beta/Adam_1"
        string_val: "MobilenetV1/Conv2d_8_depthwise/depthwise_weights/Adam"
        string_val: "MobilenetV1/Conv2d_8_depthwise/depthwise_weights/Adam_1"
        string_val: "MobilenetV1/Conv2d_8_depthwise/BatchNorm/gamma/Adam"
        string_val: "MobilenetV1/Conv2d_8_depthwise/BatchNorm/gamma/Adam_1"
        string_val: "MobilenetV1/Conv2d_8_depthwise/BatchNorm/beta/Adam"
        string_val: "MobilenetV1/Conv2d_8_depthwise/BatchNorm/beta/Adam_1"
        string_val: "MobilenetV1/Conv2d_8_pointwise/weights/Adam"
        string_val: "MobilenetV1/Conv2d_8_pointwise/weights/Adam_1"
        string_val: "MobilenetV1/Conv2d_8_pointwise/BatchNorm/gamma/Adam"
        string_val: "MobilenetV1/Conv2d_8_pointwise/BatchNorm/gamma/Adam_1"
        string_val: "MobilenetV1/Conv2d_8_pointwise/BatchNorm/beta/Adam"
        string_val: "MobilenetV1/Conv2d_8_pointwise/BatchNorm/beta/Adam_1"
        string_val: "MobilenetV1/Conv2d_9_depthwise/depthwise_weights/Adam"
        string_val: "MobilenetV1/Conv2d_9_depthwise/depthwise_weights/Adam_1"
        string_val: "MobilenetV1/Conv2d_9_depthwise/BatchNorm/gamma/Adam"
        string_val: "MobilenetV1/Conv2d_9_depthwise/BatchNorm/gamma/Adam_1"
        string_val: "MobilenetV1/Conv2d_9_depthwise/BatchNorm/beta/Adam"
        string_val: "MobilenetV1/Conv2d_9_depthwise/BatchNorm/beta/Adam_1"
        string_val: "MobilenetV1/Conv2d_9_pointwise/weights/Adam"
        string_val: "MobilenetV1/Conv2d_9_pointwise/weights/Adam_1"
        string_val: "MobilenetV1/Conv2d_9_pointwise/BatchNorm/gamma/Adam"
        string_val: "MobilenetV1/Conv2d_9_pointwise/BatchNorm/gamma/Adam_1"
        string_val: "MobilenetV1/Conv2d_9_pointwise/BatchNorm/beta/Adam"
        string_val: "MobilenetV1/Conv2d_9_pointwise/BatchNorm/beta/Adam_1"
        string_val: "MobilenetV1/Conv2d_10_depthwise/depthwise_weights/Adam"
        string_val: "MobilenetV1/Conv2d_10_depthwise/depthwise_weights/Adam_1"
        string_val: "MobilenetV1/Conv2d_10_depthwise/BatchNorm/gamma/Adam"
        string_val: "MobilenetV1/Conv2d_10_depthwise/BatchNorm/gamma/Adam_1"
        string_val: "MobilenetV1/Conv2d_10_depthwise/BatchNorm/beta/Adam"
        string_val: "MobilenetV1/Conv2d_10_depthwise/BatchNorm/beta/Adam_1"
        string_val: "MobilenetV1/Conv2d_10_pointwise/weights/Adam"
        string_val: "MobilenetV1/Conv2d_10_pointwise/weights/Adam_1"
        string_val: "MobilenetV1/Conv2d_10_pointwise/BatchNorm/gamma/Adam"
        string_val: "MobilenetV1/Conv2d_10_pointwise/BatchNorm/gamma/Adam_1"
        string_val: "MobilenetV1/Conv2d_10_pointwise/BatchNorm/beta/Adam"
        string_val: "MobilenetV1/Conv2d_10_pointwise/BatchNorm/beta/Adam_1"
        string_val: "MobilenetV1/Conv2d_11_depthwise/depthwise_weights/Adam"
        string_val: "MobilenetV1/Conv2d_11_depthwise/depthwise_weights/Adam_1"
        string_val: "MobilenetV1/Conv2d_11_depthwise/BatchNorm/gamma/Adam"
        string_val: "MobilenetV1/Conv2d_11_depthwise/BatchNorm/gamma/Adam_1"
        string_val: "MobilenetV1/Conv2d_11_depthwise/BatchNorm/beta/Adam"
        string_val: "MobilenetV1/Conv2d_11_depthwise/BatchNorm/beta/Adam_1"
        string_val: "MobilenetV1/Conv2d_11_pointwise/weights/Adam"
        string_val: "MobilenetV1/Conv2d_11_pointwise/weights/Adam_1"
        string_val: "MobilenetV1/Conv2d_11_pointwise/BatchNorm/gamma/Adam"
        string_val: "MobilenetV1/Conv2d_11_pointwise/BatchNorm/gamma/Adam_1"
        string_val: "MobilenetV1/Conv2d_11_pointwise/BatchNorm/beta/Adam"
        string_val: "MobilenetV1/Conv2d_11_pointwise/BatchNorm/beta/Adam_1"
        string_val: "MobilenetV1/Conv2d_12_depthwise/depthwise_weights/Adam"
        string_val: "MobilenetV1/Conv2d_12_depthwise/depthwise_weights/Adam_1"
        string_val: "MobilenetV1/Conv2d_12_depthwise/BatchNorm/gamma/Adam"
        string_val: "MobilenetV1/Conv2d_12_depthwise/BatchNorm/gamma/Adam_1"
        string_val: "MobilenetV1/Conv2d_12_depthwise/BatchNorm/beta/Adam"
        string_val: "MobilenetV1/Conv2d_12_depthwise/BatchNorm/beta/Adam_1"
        string_val: "MobilenetV1/Conv2d_12_pointwise/weights/Adam"
        string_val: "MobilenetV1/Conv2d_12_pointwise/weights/Adam_1"
        string_val: "MobilenetV1/Conv2d_12_pointwise/BatchNorm/gamma/Adam"
        string_val: "MobilenetV1/Conv2d_12_pointwise/BatchNorm/gamma/Adam_1"
        string_val: "MobilenetV1/Conv2d_12_pointwise/BatchNorm/beta/Adam"
        string_val: "MobilenetV1/Conv2d_12_pointwise/BatchNorm/beta/Adam_1"
        string_val: "MobilenetV1/Conv2d_13_depthwise/depthwise_weights/Adam"
        string_val: "MobilenetV1/Conv2d_13_depthwise/depthwise_weights/Adam_1"
        string_val: "MobilenetV1/Conv2d_13_depthwise/BatchNorm/gamma/Adam"
        string_val: "MobilenetV1/Conv2d_13_depthwise/BatchNorm/gamma/Adam_1"
        string_val: "MobilenetV1/Conv2d_13_depthwise/BatchNorm/beta/Adam"
        string_val: "MobilenetV1/Conv2d_13_depthwise/BatchNorm/beta/Adam_1"
        string_val: "MobilenetV1/Conv2d_13_pointwise/weights/Adam"
        string_val: "MobilenetV1/Conv2d_13_pointwise/weights/Adam_1"
        string_val: "MobilenetV1/Conv2d_13_pointwise/BatchNorm/gamma/Adam"
        string_val: "MobilenetV1/Conv2d_13_pointwise/BatchNorm/gamma/Adam_1"
        string_val: "MobilenetV1/Conv2d_13_pointwise/BatchNorm/beta/Adam"
        string_val: "MobilenetV1/Conv2d_13_pointwise/BatchNorm/beta/Adam_1"
        string_val: "MobilenetV1/Logits/Conv2d_1c_1x1/weights/Adam"
        string_val: "MobilenetV1/Logits/Conv2d_1c_1x1/weights/Adam_1"
        string_val: "MobilenetV1/Logits/Conv2d_1c_1x1/biases/Adam"
        string_val: "MobilenetV1/Logits/Conv2d_1c_1x1/biases/Adam_1"
      }
    }
  }
}
node {
  name: "init_ops/report_uninitialized_variables/boolean_mask/Shape"
  op: "Const"
  device: "/device:CPU:0"
  attr {
    key: "_output_shapes"
    value {
      list {
        shape {
          dim {
            size: 1
          }
        }
      }
    }
  }
  attr {
    key: "dtype"
    value {
      type: DT_INT32
    }
  }
  attr {
    key: "value"
    value {
      tensor {
        dtype: DT_INT32
        tensor_shape {
          dim {
            size: 1
          }
        }
        int_val: 306
      }
    }
  }
}
node {
  name: "init_ops/report_uninitialized_variables/boolean_mask/strided_slice/stack"
  op: "Const"
  device: "/device:CPU:0"
  attr {
    key: "_output_shapes"
    value {
      list {
        shape {
          dim {
            size: 1
          }
        }
      }
    }
  }
  attr {
    key: "dtype"
    value {
      type: DT_INT32
    }
  }
  attr {
    key: "value"
    value {
      tensor {
        dtype: DT_INT32
        tensor_shape {
          dim {
            size: 1
          }
        }
        int_val: 0
      }
    }
  }
}
node {
  name: "init_ops/report_uninitialized_variables/boolean_mask/strided_slice/stack_1"
  op: "Const"
  device: "/device:CPU:0"
  attr {
    key: "_output_shapes"
    value {
      list {
        shape {
          dim {
            size: 1
          }
        }
      }
    }
  }
  attr {
    key: "dtype"
    value {
      type: DT_INT32
    }
  }
  attr {
    key: "value"
    value {
      tensor {
        dtype: DT_INT32
        tensor_shape {
          dim {
            size: 1
          }
        }
        int_val: 1
      }
    }
  }
}
node {
  name: "init_ops/report_uninitialized_variables/boolean_mask/strided_slice/stack_2"
  op: "Const"
  device: "/device:CPU:0"
  attr {
    key: "_output_shapes"
    value {
      list {
        shape {
          dim {
            size: 1
          }
        }
      }
    }
  }
  attr {
    key: "dtype"
    value {
      type: DT_INT32
    }
  }
  attr {
    key: "value"
    value {
      tensor {
        dtype: DT_INT32
        tensor_shape {
          dim {
            size: 1
          }
        }
        int_val: 1
      }
    }
  }
}
node {
  name: "init_ops/report_uninitialized_variables/boolean_mask/strided_slice"
  op: "StridedSlice"
  input: "init_ops/report_uninitialized_variables/boolean_mask/Shape"
  input: "init_ops/report_uninitialized_variables/boolean_mask/strided_slice/stack"
  input: "init_ops/report_uninitialized_variables/boolean_mask/strided_slice/stack_1"
  input: "init_ops/report_uninitialized_variables/boolean_mask/strided_slice/stack_2"
  device: "/device:CPU:0"
  attr {
    key: "Index"
    value {
      type: DT_INT32
    }
  }
  attr {
    key: "T"
    value {
      type: DT_INT32
    }
  }
  attr {
    key: "_output_shapes"
    value {
      list {
        shape {
          dim {
            size: 1
          }
        }
      }
    }
  }
  attr {
    key: "begin_mask"
    value {
      i: 0
    }
  }
  attr {
    key: "ellipsis_mask"
    value {
      i: 0
    }
  }
  attr {
    key: "end_mask"
    value {
      i: 0
    }
  }
  attr {
    key: "new_axis_mask"
    value {
      i: 0
    }
  }
  attr {
    key: "shrink_axis_mask"
    value {
      i: 0
    }
  }
}
node {
  name: "init_ops/report_uninitialized_variables/boolean_mask/Prod/reduction_indices"
  op: "Const"
  device: "/device:CPU:0"
  attr {
    key: "_output_shapes"
    value {
      list {
        shape {
          dim {
            size: 1
          }
        }
      }
    }
  }
  attr {
    key: "dtype"
    value {
      type: DT_INT32
    }
  }
  attr {
    key: "value"
    value {
      tensor {
        dtype: DT_INT32
        tensor_shape {
          dim {
            size: 1
          }
        }
        int_val: 0
      }
    }
  }
}
node {
  name: "init_ops/report_uninitialized_variables/boolean_mask/Prod"
  op: "Prod"
  input: "init_ops/report_uninitialized_variables/boolean_mask/strided_slice"
  input: "init_ops/report_uninitialized_variables/boolean_mask/Prod/reduction_indices"
  device: "/device:CPU:0"
  attr {
    key: "T"
    value {
      type: DT_INT32
    }
  }
  attr {
    key: "Tidx"
    value {
      type: DT_INT32
    }
  }
  attr {
    key: "_output_shapes"
    value {
      list {
        shape {
        }
      }
    }
  }
  attr {
    key: "keep_dims"
    value {
      b: false
    }
  }
}
node {
  name: "init_ops/report_uninitialized_variables/boolean_mask/Shape_1"
  op: "Const"
  device: "/device:CPU:0"
  attr {
    key: "_output_shapes"
    value {
      list {
        shape {
          dim {
            size: 1
          }
        }
      }
    }
  }
  attr {
    key: "dtype"
    value {
      type: DT_INT32
    }
  }
  attr {
    key: "value"
    value {
      tensor {
        dtype: DT_INT32
        tensor_shape {
          dim {
            size: 1
          }
        }
        int_val: 306
      }
    }
  }
}
node {
  name: "init_ops/report_uninitialized_variables/boolean_mask/strided_slice_1/stack"
  op: "Const"
  device: "/device:CPU:0"
  attr {
    key: "_output_shapes"
    value {
      list {
        shape {
          dim {
            size: 1
          }
        }
      }
    }
  }
  attr {
    key: "dtype"
    value {
      type: DT_INT32
    }
  }
  attr {
    key: "value"
    value {
      tensor {
        dtype: DT_INT32
        tensor_shape {
          dim {
            size: 1
          }
        }
        int_val: 0
      }
    }
  }
}
node {
  name: "init_ops/report_uninitialized_variables/boolean_mask/strided_slice_1/stack_1"
  op: "Const"
  device: "/device:CPU:0"
  attr {
    key: "_output_shapes"
    value {
      list {
        shape {
          dim {
            size: 1
          }
        }
      }
    }
  }
  attr {
    key: "dtype"
    value {
      type: DT_INT32
    }
  }
  attr {
    key: "value"
    value {
      tensor {
        dtype: DT_INT32
        tensor_shape {
          dim {
            size: 1
          }
        }
        int_val: 0
      }
    }
  }
}
node {
  name: "init_ops/report_uninitialized_variables/boolean_mask/strided_slice_1/stack_2"
  op: "Const"
  device: "/device:CPU:0"
  attr {
    key: "_output_shapes"
    value {
      list {
        shape {
          dim {
            size: 1
          }
        }
      }
    }
  }
  attr {
    key: "dtype"
    value {
      type: DT_INT32
    }
  }
  attr {
    key: "value"
    value {
      tensor {
        dtype: DT_INT32
        tensor_shape {
          dim {
            size: 1
          }
        }
        int_val: 1
      }
    }
  }
}
node {
  name: "init_ops/report_uninitialized_variables/boolean_mask/strided_slice_1"
  op: "StridedSlice"
  input: "init_ops/report_uninitialized_variables/boolean_mask/Shape_1"
  input: "init_ops/report_uninitialized_variables/boolean_mask/strided_slice_1/stack"
  input: "init_ops/report_uninitialized_variables/boolean_mask/strided_slice_1/stack_1"
  input: "init_ops/report_uninitialized_variables/boolean_mask/strided_slice_1/stack_2"
  device: "/device:CPU:0"
  attr {
    key: "Index"
    value {
      type: DT_INT32
    }
  }
  attr {
    key: "T"
    value {
      type: DT_INT32
    }
  }
  attr {
    key: "_output_shapes"
    value {
      list {
        shape {
          dim {
          }
        }
      }
    }
  }
  attr {
    key: "begin_mask"
    value {
      i: 1
    }
  }
  attr {
    key: "ellipsis_mask"
    value {
      i: 0
    }
  }
  attr {
    key: "end_mask"
    value {
      i: 0
    }
  }
  attr {
    key: "new_axis_mask"
    value {
      i: 0
    }
  }
  attr {
    key: "shrink_axis_mask"
    value {
      i: 0
    }
  }
}
node {
  name: "init_ops/report_uninitialized_variables/boolean_mask/Shape_2"
  op: "Const"
  device: "/device:CPU:0"
  attr {
    key: "_output_shapes"
    value {
      list {
        shape {
          dim {
            size: 1
          }
        }
      }
    }
  }
  attr {
    key: "dtype"
    value {
      type: DT_INT32
    }
  }
  attr {
    key: "value"
    value {
      tensor {
        dtype: DT_INT32
        tensor_shape {
          dim {
            size: 1
          }
        }
        int_val: 306
      }
    }
  }
}
node {
  name: "init_ops/report_uninitialized_variables/boolean_mask/strided_slice_2/stack"
  op: "Const"
  device: "/device:CPU:0"
  attr {
    key: "_output_shapes"
    value {
      list {
        shape {
          dim {
            size: 1
          }
        }
      }
    }
  }
  attr {
    key: "dtype"
    value {
      type: DT_INT32
    }
  }
  attr {
    key: "value"
    value {
      tensor {
        dtype: DT_INT32
        tensor_shape {
          dim {
            size: 1
          }
        }
        int_val: 1
      }
    }
  }
}
node {
  name: "init_ops/report_uninitialized_variables/boolean_mask/strided_slice_2/stack_1"
  op: "Const"
  device: "/device:CPU:0"
  attr {
    key: "_output_shapes"
    value {
      list {
        shape {
          dim {
            size: 1
          }
        }
      }
    }
  }
  attr {
    key: "dtype"
    value {
      type: DT_INT32
    }
  }
  attr {
    key: "value"
    value {
      tensor {
        dtype: DT_INT32
        tensor_shape {
          dim {
            size: 1
          }
        }
        int_val: 0
      }
    }
  }
}
node {
  name: "init_ops/report_uninitialized_variables/boolean_mask/strided_slice_2/stack_2"
  op: "Const"
  device: "/device:CPU:0"
  attr {
    key: "_output_shapes"
    value {
      list {
        shape {
          dim {
            size: 1
          }
        }
      }
    }
  }
  attr {
    key: "dtype"
    value {
      type: DT_INT32
    }
  }
  attr {
    key: "value"
    value {
      tensor {
        dtype: DT_INT32
        tensor_shape {
          dim {
            size: 1
          }
        }
        int_val: 1
      }
    }
  }
}
node {
  name: "init_ops/report_uninitialized_variables/boolean_mask/strided_slice_2"
  op: "StridedSlice"
  input: "init_ops/report_uninitialized_variables/boolean_mask/Shape_2"
  input: "init_ops/report_uninitialized_variables/boolean_mask/strided_slice_2/stack"
  input: "init_ops/report_uninitialized_variables/boolean_mask/strided_slice_2/stack_1"
  input: "init_ops/report_uninitialized_variables/boolean_mask/strided_slice_2/stack_2"
  device: "/device:CPU:0"
  attr {
    key: "Index"
    value {
      type: DT_INT32
    }
  }
  attr {
    key: "T"
    value {
      type: DT_INT32
    }
  }
  attr {
    key: "_output_shapes"
    value {
      list {
        shape {
          dim {
          }
        }
      }
    }
  }
  attr {
    key: "begin_mask"
    value {
      i: 0
    }
  }
  attr {
    key: "ellipsis_mask"
    value {
      i: 0
    }
  }
  attr {
    key: "end_mask"
    value {
      i: 1
    }
  }
  attr {
    key: "new_axis_mask"
    value {
      i: 0
    }
  }
  attr {
    key: "shrink_axis_mask"
    value {
      i: 0
    }
  }
}
node {
  name: "init_ops/report_uninitialized_variables/boolean_mask/concat/values_1"
  op: "Pack"
  input: "init_ops/report_uninitialized_variables/boolean_mask/Prod"
  device: "/device:CPU:0"
  attr {
    key: "N"
    value {
      i: 1
    }
  }
  attr {
    key: "T"
    value {
      type: DT_INT32
    }
  }
  attr {
    key: "_output_shapes"
    value {
      list {
        shape {
          dim {
            size: 1
          }
        }
      }
    }
  }
  attr {
    key: "axis"
    value {
      i: 0
    }
  }
}
node {
  name: "init_ops/report_uninitialized_variables/boolean_mask/concat/axis"
  op: "Const"
  device: "/device:CPU:0"
  attr {
    key: "_output_shapes"
    value {
      list {
        shape {
        }
      }
    }
  }
  attr {
    key: "dtype"
    value {
      type: DT_INT32
    }
  }
  attr {
    key: "value"
    value {
      tensor {
        dtype: DT_INT32
        tensor_shape {
        }
        int_val: 0
      }
    }
  }
}
node {
  name: "init_ops/report_uninitialized_variables/boolean_mask/concat"
  op: "ConcatV2"
  input: "init_ops/report_uninitialized_variables/boolean_mask/strided_slice_1"
  input: "init_ops/report_uninitialized_variables/boolean_mask/concat/values_1"
  input: "init_ops/report_uninitialized_variables/boolean_mask/strided_slice_2"
  input: "init_ops/report_uninitialized_variables/boolean_mask/concat/axis"
  device: "/device:CPU:0"
  attr {
    key: "N"
    value {
      i: 3
    }
  }
  attr {
    key: "T"
    value {
      type: DT_INT32
    }
  }
  attr {
    key: "Tidx"
    value {
      type: DT_INT32
    }
  }
  attr {
    key: "_output_shapes"
    value {
      list {
        shape {
          dim {
            size: 1
          }
        }
      }
    }
  }
}
node {
  name: "init_ops/report_uninitialized_variables/boolean_mask/Reshape"
  op: "Reshape"
  input: "init_ops/report_uninitialized_variables/Const"
  input: "init_ops/report_uninitialized_variables/boolean_mask/concat"
  device: "/device:CPU:0"
  attr {
    key: "T"
    value {
      type: DT_STRING
    }
  }
  attr {
    key: "Tshape"
    value {
      type: DT_INT32
    }
  }
  attr {
    key: "_output_shapes"
    value {
      list {
        shape {
          dim {
            size: 306
          }
        }
      }
    }
  }
}
node {
  name: "init_ops/report_uninitialized_variables/boolean_mask/Reshape_1/shape"
  op: "Const"
  device: "/device:CPU:0"
  attr {
    key: "_output_shapes"
    value {
      list {
        shape {
          dim {
            size: 1
          }
        }
      }
    }
  }
  attr {
    key: "dtype"
    value {
      type: DT_INT32
    }
  }
  attr {
    key: "value"
    value {
      tensor {
        dtype: DT_INT32
        tensor_shape {
          dim {
            size: 1
          }
        }
        int_val: -1
      }
    }
  }
}
node {
  name: "init_ops/report_uninitialized_variables/boolean_mask/Reshape_1"
  op: "Reshape"
  input: "init_ops/report_uninitialized_variables/LogicalNot"
  input: "init_ops/report_uninitialized_variables/boolean_mask/Reshape_1/shape"
  device: "/device:CPU:0"
  attr {
    key: "T"
    value {
      type: DT_BOOL
    }
  }
  attr {
    key: "Tshape"
    value {
      type: DT_INT32
    }
  }
  attr {
    key: "_output_shapes"
    value {
      list {
        shape {
          dim {
            size: 306
          }
        }
      }
    }
  }
}
node {
  name: "init_ops/report_uninitialized_variables/boolean_mask/Where"
  op: "Where"
  input: "init_ops/report_uninitialized_variables/boolean_mask/Reshape_1"
  device: "/device:CPU:0"
  attr {
    key: "T"
    value {
      type: DT_BOOL
    }
  }
  attr {
    key: "_output_shapes"
    value {
      list {
        shape {
          dim {
            size: -1
          }
          dim {
            size: 1
          }
        }
      }
    }
  }
}
node {
  name: "init_ops/report_uninitialized_variables/boolean_mask/Squeeze"
  op: "Squeeze"
  input: "init_ops/report_uninitialized_variables/boolean_mask/Where"
  device: "/device:CPU:0"
  attr {
    key: "T"
    value {
      type: DT_INT64
    }
  }
  attr {
    key: "_output_shapes"
    value {
      list {
        shape {
          dim {
            size: -1
          }
        }
      }
    }
  }
  attr {
    key: "squeeze_dims"
    value {
      list {
        i: 1
      }
    }
  }
}
node {
  name: "init_ops/report_uninitialized_variables/boolean_mask/GatherV2/axis"
  op: "Const"
  device: "/device:CPU:0"
  attr {
    key: "_output_shapes"
    value {
      list {
        shape {
        }
      }
    }
  }
  attr {
    key: "dtype"
    value {
      type: DT_INT32
    }
  }
  attr {
    key: "value"
    value {
      tensor {
        dtype: DT_INT32
        tensor_shape {
        }
        int_val: 0
      }
    }
  }
}
node {
  name: "init_ops/report_uninitialized_variables/boolean_mask/GatherV2"
  op: "GatherV2"
  input: "init_ops/report_uninitialized_variables/boolean_mask/Reshape"
  input: "init_ops/report_uninitialized_variables/boolean_mask/Squeeze"
  input: "init_ops/report_uninitialized_variables/boolean_mask/GatherV2/axis"
  device: "/device:CPU:0"
  attr {
    key: "Taxis"
    value {
      type: DT_INT32
    }
  }
  attr {
    key: "Tindices"
    value {
      type: DT_INT64
    }
  }
  attr {
    key: "Tparams"
    value {
      type: DT_STRING
    }
  }
  attr {
    key: "_output_shapes"
    value {
      list {
        shape {
          dim {
            size: -1
          }
        }
      }
    }
  }
}
node {
  name: "init_ops/init_1"
  op: "NoOp"
}
node {
  name: "init_ops/init_all_tables"
  op: "NoOp"
}
node {
  name: "init_ops/group_deps"
  op: "NoOp"
  input: "^init_ops/init_1"
  input: "^init_ops/init_all_tables"
}
node {
  name: "Merge/MergeSummary"
  op: "MergeSummary"
  input: "input_producer/fraction_of_32_full"
  input: "shuffle_batch/fraction_over_10_of_20_full"
  input: "losses/Total_Loss"
  attr {
    key: "N"
    value {
      i: 3
    }
  }
  attr {
    key: "_output_shapes"
    value {
      list {
        shape {
        }
      }
    }
  }
}
node {
  name: "train_step/GreaterEqual/y"
  op: "Const"
  attr {
    key: "_output_shapes"
    value {
      list {
        shape {
        }
      }
    }
  }
  attr {
    key: "dtype"
    value {
      type: DT_INT64
    }
  }
  attr {
    key: "value"
    value {
      tensor {
        dtype: DT_INT64
        tensor_shape {
        }
        int64_val: 100
      }
    }
  }
}
node {
  name: "train_step/GreaterEqual"
  op: "GreaterEqual"
  input: "global_step/read"
  input: "train_step/GreaterEqual/y"
  attr {
    key: "T"
    value {
      type: DT_INT64
    }
  }
  attr {
    key: "_output_shapes"
    value {
      list {
        shape {
        }
      }
    }
  }
}
node {
  name: "train_step/FloorMod/y"
  op: "Const"
  attr {
    key: "_output_shapes"
    value {
      list {
        shape {
        }
      }
    }
  }
  attr {
    key: "dtype"
    value {
      type: DT_INT64
    }
  }
  attr {
    key: "value"
    value {
      tensor {
        dtype: DT_INT64
        tensor_shape {
        }
        int64_val: 1
      }
    }
  }
}
node {
  name: "train_step/FloorMod"
  op: "FloorMod"
  input: "global_step/read"
  input: "train_step/FloorMod/y"
  attr {
    key: "T"
    value {
      type: DT_INT64
    }
  }
  attr {
    key: "_output_shapes"
    value {
      list {
        shape {
        }
      }
    }
  }
}
node {
  name: "train_step/Equal/y"
  op: "Const"
  attr {
    key: "_output_shapes"
    value {
      list {
        shape {
        }
      }
    }
  }
  attr {
    key: "dtype"
    value {
      type: DT_INT64
    }
  }
  attr {
    key: "value"
    value {
      tensor {
        dtype: DT_INT64
        tensor_shape {
        }
        int64_val: 0
      }
    }
  }
}
node {
  name: "train_step/Equal"
  op: "Equal"
  input: "train_step/FloorMod"
  input: "train_step/Equal/y"
  attr {
    key: "T"
    value {
      type: DT_INT64
    }
  }
  attr {
    key: "_output_shapes"
    value {
      list {
        shape {
        }
      }
    }
  }
}
versions {
  producer: 26
}
